flask_app/src/model_checkpoint.pt (torch_old, 22675 bytes, 18 tensors)

gru.weight_ih_l0 f4 [30, 40]
000000 a6 ef 54 be 66 42 7a 3e e5 74 9b be 18 01 5e be
       -0.20794544 0.24439391 -0.3036262 -0.21680105
000010 08 21 ac 3d 06 d0 87 be 68 b2 83 3d 48 d1 02 3d
       0.08404738 -0.26525897 0.06430513 0.031937867
000020 a1 19 25 be 20 07 60 bc 9a 10 5d 3e 92 9e 67 3e
       -0.16123058 -0.013673574 0.21588364 0.22619084
000030 11 f7 87 3e a6 9d a0 be 4a 74 05 3e af c6 9b 3e
       0.26555684 -0.31370276 0.13032642 0.3042502
000040 f6 1d 68 3e 2b 54 8b be c9 f8 8e be eb 9c 8a 3e
       0.22667679 -0.27212653 -0.27924183 0.27072844
000050 3d 70 9a 3e c0 cd 42 3c aa 87 5b 3e 36 87 23 3e
       0.30163756 0.011889875 0.2143847 0.15969548
000060 d3 4c 9a 3e e7 c6 85 be d0 15 09 bd 83 a9 92 be
       0.30136737 -0.26128313 -0.033468068 -0.28644952
000070 16 36 0c 3e 12 02 06 3e 6a 09 7e 3e f8 b9 72 bd
       0.13692507 0.13086727 0.24808279 -0.059259385
000080 40 4f fe bd 58 56 30 3d 00 72 64 bb 4b 5b 8f be
       -0.124174595 0.043051094 -0.0034857988 -0.27999339
000090 d0 e6 ae 3d 7a 80 36 3e 80 0c fa 3c 68 e8 8e 3d
       0.08540118 0.17822447 0.030523539 0.06977922
0000a0 36 bf 21 3e 7f 1c af 3d 63 3c 5c be 48 57 8c 3e
       0.15795597 0.08550357 -0.2150741 0.2741034
0000b0 fb 0e cf 3d 5d 1b 85 3e 38 6e dc bd 87 b7 39 be
       0.10110279 0.2599744 -0.1076321 -0.18136416
0000c0 23 fe ae 3e ee f8 95 bd 56 75 5c 3e 2f 22 01 3e
       0.34178266 -0.0732287 0.21529135 0.12610696
0000d0 10 0f b2 3e cb c9 1d be 28 59 86 3e 89 2e d4 3d
       0.34777117 -0.15409009 0.26239896 0.103604384
0000e0 75 a2 87 bc 2d b0 2a bd 7c ff 53 be 4a 9e 27 bd
       -0.016556958 -0.04167192 -0.20702928 -0.04092244
0000f0 ca bc 4b 3d 78 87 e3 3c fb 85 05 be 06 8b 8e 3d
       0.04974059 0.027774557 -0.1303939 0.0696011
000100 9a 4e 18 3e 43 79 28 3e dc a4 0f be 4b 32 cd 3d
       0.14873734 0.16452508 -0.14027733 0.10019358
000110 2e b5 5d be aa 77 61 be 69 39 ad bd e9 23 6e be
       -0.21651146 -0.22018304 -0.08458216 -0.23255886
000120 51 07 2f be 48 f0 ef 3d de 3f f2 bc c9 8c b6 3d
       -0.17092635 0.11715752 -0.02957147 0.089135714
000130 58 ee 8d 3e 59 a8 8b bd 1a dc a9 3d 0f 7a e4 3c
       0.27720904 -0.06819219 0.08293934 0.027890233
000140 8a b7 84 be c1 73 8f 3e d0 e4 6c bd 7e 2c ec bd
       -0.2592128 0.28018 -0.0578354 -0.11531924
000150 5a 61 73 3e c0 35 75 3c f4 74 71 be 0b 7d 9a 3e
       0.23767605 0.014966428 -0.2357977 0.30173525
000160 c4 61 c6 bd 3a 38 6d 3e 18 5c b9 bd a0 a0 6c bd
       -0.09686616 0.2316598 -0.090507686 -0.05777037
000170 12 c6 4f 3e 6c 6b 9c 3d f0 e4 38 bd ba b2 19 3e
       0.20290402 0.076376766 -0.045140207 0.15009585
000180 c8 25 f7 3d 66 fe 73 3e f6 0f 44 3e ca 7f 03 3e
       0.12067753 0.23827514 0.19146714 0.12841716
000190 b6 44 bc bd 60 11 11 be 58 4f 6b bd 98 17 53 bd
       -0.09192793 -0.14166784 -0.057448715 -0.051536173
0001a0 ab 1e 84 3e c0 79 8a 3c 00 0f 9b be 74 14 b6 3d
       0.25804648 0.016903758 -0.30284882 0.0889062
0001b0 c0 81 89 3d 48 e2 53 bd f6 b7 45 be a0 c4 f7 bd
       0.06714201 -0.05172947 -0.19308457 -0.1209805
0001c0 8b 53 84 be c0 96 f0 bd 64 ef e0 3d d0 4e b5 3c
       -0.25844988 -0.11747503 0.1098316 0.022132307
0001d0 90 45 fe bc e6 84 4c 3e b0 0e 1b 3d 09 ea 24 be
       -0.03103903 0.19972572 0.037855804 -0.16104902
0001e0 74 60 50 3e e2 39 af bd 3e 86 37 3e 7d cf 6d be
       0.20349294 -0.08555962 0.17922303 -0.23223682
0001f0 df a2 1e be b7 40 8e 3e f1 e2 06 bd d6 1d 1b 3c
       -0.15491818 0.27783749 -0.032931272 0.009467563
000200 08 fa 97 be 68 5b bf 3d d3 15 3b be 71 31 95 3e
       -0.29682946 0.09343606 -0.18270044 0.29139283
000210 1a 85 27 be 39 31 90 3e bb b0 55 3d 41 24 b5 bc
       -0.16359368 0.28162554 0.052170496 -0.022112014
000220 4e dc 9d be df bc 80 bd a7 70 62 3e 4b 4c 80 be
       -0.30832142 -0.06286024 0.22113286 -0.25058207
000230 ab 08 b7 bc 4b a9 32 3c 87 34 4a be ab 03 99 be
       -0.022343 0.01090462 -0.197466 -0.2988561
000240 ae 68 8f be 25 39 58 3e 37 84 bb 3c 0b 3b f1 bd
       -0.28009552 0.21115549 0.022890193 -0.1177884
000250 7b 90 62 3e 37 1d 2b 3e e8 05 33 3e e4 01 4c 3d
       0.22125427 0.16710363 0.17482722 0.04980649
000260 22 87 06 be b8 aa 01 3e 44 07 23 3b a9 51 a0 bc
       -0.13137487 0.1266278 0.0024876157 -0.019570189
000270 e6 92 f5 bd 8b 68 91 be 7d 6f b8 bd a5 11 64 3e
       -0.11990909 -0.28400072 -0.0900564 0.22272356
000280 a3 fa 8e bd 2f d7 61 be 47 5e 2f 3e d0 4d 02 3e
       -0.06981399 -0.22054742 0.17125808 0.12724996
000290 56 d4 94 be 43 54 c7 bd 6e a1 87 be 88 0b 30 be
       -0.2906825 -0.097328685 -0.2649035 -0.17191899
0002a0 b6 62 c7 3c 67 a1 7c 3e 3d 44 09 be 82 88 59 bd
       0.024339061 0.24670945 -0.13404937 -0.0531087
0002b0 a0 c6 d7 bc 88 67 88 be fc 11 bc bc 7b 95 fb bd
       -0.026339829 -0.26641488 -0.022957794 -0.122843705
0002c0 42 a2 6e bd e4 e7 a2 bd 14 2f 15 3e c3 1c 16 3e
       -0.05826021 -0.07954386 0.1456874 0.14659409
0002d0 74 88 6d 3e 75 57 41 3e 0d 2a 3a be d0 74 d9 3c
       0.23196584 0.18881018 -0.18180104 0.026544958
0002e0 24 c4 90 bc 8d 9e 33 3d f6 b9 ac bb aa 4e 8c be
       -0.017671652 0.043852378 -0.0052711917 -0.27403766
0002f0 75 b5 90 3e eb aa 99 3e 48 41 b7 bc 6e 92 ac bd
       0.2826344 0.30013213 -0.022369996 -0.08426367
000300 3d 88 85 3e 0c 6c 8a be a2 56 c6 3d ff 19 78 bc
       0.26080504 -0.27035558 0.09684493 -0.015142917
000310 18 09 3f 3d 39 c9 0c be 09 15 ec 3d 56 2a 8b 3e
       0.04663953 -0.13748635 0.1152745 0.27180737
000320 c7 15 8b be ba a2 10 3e 34 6b ad 3d ac cd ce 3d
       -0.27165052 0.14124575 0.08467713 0.100978225
000330 ca 1b 64 3e 79 79 86 3e 40 2e a6 3c f8 0c 65 bd
       0.22276226 0.2626455 0.020285726 -0.05592057
000340 2f b7 90 3e 89 fd 8c 3e 8d 30 88 be 0c fc 9c be
       0.28264758 0.27537182 -0.2659954 -0.30661047
000350 78 9f ed 3d ff 59 86 3e e0 d3 b0 bc 04 82 b9 3d
       0.11602682 0.26240537 -0.021585405 0.09058002
000360 38 41 34 3e 13 4e 80 be 34 a7 84 bd 55 47 9f be
       0.17603004 -0.25059566 -0.06477204 -0.3110911
000370 24 7a 8a 3d 00 07 28 3b 78 da 34 3e 90 17 ef bd
       0.06761578 0.0025638938 0.17661464 -0.11674416
000380 d0 76 29 3d 08 5d 2d 3d 28 f1 d1 3d b2 61 20 3e
       0.041373074 0.04232505 0.10251075 0.15662268
000390 09 c2 9a 3e 52 40 3f 3e 66 c0 33 be ec 34 0b 3e
       0.30226162 0.1867688 -0.17553863 0.13594407
0003a0 ee 4f 4a 3e 17 55 5a be 07 9f 38 be 60 fa 01 3e
       0.19757053 -0.21321522 -0.18029414 0.12693167
0003b0 f2 f3 03 3e 40 8c 17 3c 26 b1 39 3e 20 ed 4a be
       0.12886027 0.009249747 0.18133983 -0.19817019
0003c0 9c 45 12 3d be e5 f9 3d 21 56 07 3e f4 96 59 3c
       0.035710916 0.12202023 0.1321645 0.013280619
0003d0 93 d9 a0 bd c5 b0 4e 3e 56 6c 9f 3e df 77 ae 3c
       -0.07853999 0.2018462 0.3113734 0.021297393
0003e0 01 68 fe bd 9a 2c 3f bc fe 2a 19 bc fa 23 46 3e
       -0.12422181 -0.011668349 -0.009348629 0.19349661
0003f0 9f 48 69 be f1 d2 2e 3e 88 a4 99 3e 45 77 a0 3c
       -0.22781609 0.17072655 0.3000834 0.019588122

gru.weight_hh_l0 f4 [30, 10]
000000 d3 17 09 3d b2 86 be 3d 88 36 04 be d3 8e 19 be
       0.033469986 0.09303035 -0.12911427 -0.1499589
000010 6e 36 78 be e3 5a 90 be ce 8a 3f 3e 8c 01 6f 3e
       -0.24239513 -0.2819434 0.18705294 0.23340434
000020 28 05 6e 3e 21 eb 5f 3d 89 69 97 be 48 66 27 be
       0.23244154 0.054667596 -0.29572704 -0.16347611
000030 5c 84 f7 3d df 49 76 b9 a5 3e 15 3e b1 7b 40 3d
       0.120857924 -0.00023487907 0.14574678 0.04699296
000040 c0 56 80 bd ce c7 61 be 13 2c 3d be 27 68 c4 bd
       -0.06266546 -0.22048876 -0.18473844 -0.09590178
000050 8c 48 d9 3d 4e 10 ae 3b d9 05 05 be 57 a7 7b be
       0.1060954 0.0053120023 -0.12990512 -0.24575554
000060 f7 c2 18 bd 1d 78 41 bd 76 23 01 3e de a2 70 be
       -0.037295308 -0.04723369 0.12611184 -0.23499629
000070 92 8e 10 3d 8e e5 26 3e 22 95 48 bd 18 80 8d 3e
       0.035292216 0.16298506 -0.04897035 0.2763679
000080 10 8c 26 3e 56 71 47 3e e2 ac 48 3e 20 51 37 bd
       0.16264367 0.19476828 0.195972 -0.0447551
000090 c6 08 b8 bc 3a 1e d0 bd a7 af 52 3d 9e 63 8b be
       -0.022465121 -0.10162015 0.051437046 -0.2722444
0000a0 8f 38 e1 bc 10 c3 0b be fe 2e a2 3e 16 1d 51 3e
       -0.02749279 -0.13648629 0.31676477 0.20421252
0000b0 6a a2 a4 3d 30 32 45 be 57 e2 17 3e 9c 92 2e bd
       0.080387905 -0.19257426 0.14832436 -0.042620286
0000c0 23 e4 8d bd 13 a4 84 be 35 0b c5 3d 63 5d 85 3e
       -0.06928279 -0.2590643 0.09621278 0.2604781
0000d0 b0 c9 09 be 61 de 70 3e bb ce 60 3e f8 5f c0 bd
       -0.13455844 0.23522331 0.21953861 -0.093933046
0000e0 33 ba a2 3e 66 1c 01 3e 1d 54 e8 bd 79 3f 8b bc
       0.31782684 0.1260849 -0.11344168 -0.01699804
0000f0 bb f3 97 bd 64 7f 88 3e f9 56 35 bd 9b 41 ac 3e
       -0.07419535 0.2665969 -0.044272397 0.33643803
000100 89 e9 7c be a1 e6 e7 bc 8c b4 35 3e 9f 9a 8f 3e
       -0.24698462 -0.028308215 0.17744654 0.28047654
000110 95 68 95 3e c6 62 9a 3e a3 5d 8d 3e 61 07 56 3e
       0.29181352 0.30153483 0.27610502 0.20901252
000120 d9 6c 25 3e 2a 9d bb 3d a3 6a 9d be de d1 6b ba
       0.16154803 0.09160836 -0.3074542 -0.0008995811
000130 ba 5b 4b 3e 19 de 23 3e 69 7c 4b 3e 1b 67 8d bd
       0.1985921 0.16002692 0.19871677 -0.069044314
000140 d5 4b 7a 3e 2f e2 a9 be 51 b6 6d be b3 cc 8f be
       0.2444299 -0.33180377 -0.2321408 -0.2808586
000150 c6 29 16 bd b1 51 c0 3d a6 65 ca 3d 0a d7 d2 bc
       -0.036660932 0.093905814 0.09882669 -0.025737304
000160 57 6c 8e 3d f9 56 c5 3d a0 71 d2 3d c9 65 06 3e
       0.06954258 0.09635729 0.102755785 0.13124765
000170 1c c5 2d 3d 6e b4 1d 3e 96 a7 b3 bd a3 97 fd 3d
       0.042424306 0.1540086 -0.08772199 0.12382438
000180 90 da 98 3e 41 9a 7f bd ca a5 00 be 35 54 20 be
       0.2985425 -0.062402967 -0.12563244 -0.15657122
000190 8b de 1a be d5 d4 e6 bd 25 66 9f bc 1a 32 0c 3d
       -0.15123956 -0.11271063 -0.019457886 0.034227468
0001a0 64 2b 71 3e 70 ca 2f 3e 93 df 8e be ea 7d 89 3e
       0.23551708 0.17167068 -0.2790495 0.26853877
0001b0 ca c1 c2 3d 0d e8 3c 3d 91 eb 64 3e 47 87 87 be
       0.095096186 0.04611974 0.22355486 -0.26470396
0001c0 2d 91 2c 3e 42 77 36 be b3 a5 27 3e 1d f9 67 bd
       0.16852255 -0.17818931 0.16371803 -0.056634057
0001d0 d0 06 f6 bd f8 13 8e be 39 26 53 be 90 c4 f5 bd
       -0.12013018 -0.2774961 -0.2062005 -0.12000382
0001e0 7d 3a 05 3e 93 a4 90 3e 0e 17 34 be da 8d 83 bd
       0.13010593 0.2825056 -0.1758692 -0.064235404
0001f0 27 db bd bd 62 21 8e 3e a4 98 75 be 8a 14 34 be
       -0.092703156 0.27759844 -0.23984009 -0.1758596
000200 70 69 8c 3e 08 0d 43 be b1 09 6d be 08 1d db 3d
       0.27424192 -0.1904794 -0.23148228 0.10698897
000210 6f 35 ac be 16 f4 90 ba 17 93 63 3e b4 01 11 be
       -0.33634517 -0.0011059071 0.22224079 -0.14160806
000220 ef df c1 be 11 89 62 be 03 fd 6a 3e 88 64 d5 bb
       -0.3786616 -0.22122599 0.22948079 -0.0065122284
000230 5b f5 87 bc 63 f5 a1 3e 3a 81 1e 3e 78 4f d2 3d
       -0.016596487 0.31632528 0.15478984 0.10269064
000240 75 ea 72 3d a2 9e 04 3d c3 91 6e 3e 23 86 ee bd
       0.059305627 0.032377847 0.23297791 -0.11646678
000250 f9 dd af 3d 6a 04 92 3e a4 1c 17 bd 8a ac f4 bd
       0.0858726 0.28518993 -0.03689255 -0.11946972
000260 16 b3 5b 3e bb 3c 4f 3e 04 de 71 be 19 7f 95 be
       0.21455035 0.2023801 -0.23619848 -0.2919853
000270 5d d9 99 be fa 5a 84 3e 53 30 87 3e df ad 34 be
       -0.30048648 0.2585066 0.26404056 -0.17644452
000280 1d 54 85 be c2 1e 80 3e d6 03 39 be 62 52 73 3d
       -0.26040736 0.25023466 -0.1806787 0.05940474
000290 ef 71 2b be 0b 3a e3 3d 55 d1 7d 3d d7 0a 11 3d
       -0.16742681 0.11095055 0.061967213 0.03541073
0002a0 c2 c3 41 be a4 0b 0c 3d 62 8a 9b 3e de c3 05 3e
       -0.18922332 0.03419079 0.30379015 0.13062999
0002b0 07 65 64 be 48 90 9f be 57 52 f6 3d c0 4a 08 3e
       -0.22304164 -0.31164765 0.12027424 0.13309765
0002c0 7e 79 1f be dc f3 43 3e 6b ca 35 3c f6 60 42 3e
       -0.1557369 0.19135994 0.0110956235 0.189823
0002d0 9d 19 ad bd 00 8e 12 3d 7d 10 93 be 8a 63 bc bd
       -0.08452151 0.035779953 -0.28723517 -0.09198673
0002e0 10 54 76 be 37 20 4e be d9 ea 1b 3e 26 e5 c1 3d
       -0.24055505 -0.20129476 0.15226306 0.09467535
0002f0 8c 6a 98 be c0 f3 8f be bc db 89 3d cf cc 8a 3e
       -0.2976879 -0.28115654 0.06731364 0.27109382
000300 18 be ec bd 57 38 55 3e 11 7a 27 3e e7 b4 93 be
       -0.11559695 0.20822273 0.16355158 -0.28848955
000310 5d 3c 86 3d 5c 51 96 3e ee 0c 03 3e 56 5c 85 bd
       0.06554482 0.29358947 0.12797901 -0.06511752
000320 4a 28 4f 3e be 5f d2 3c 07 f8 0c be b5 87 f2 bd
       0.20230213 0.025680419 -0.1376649 -0.1184229
000330 3f 24 87 be ea 03 11 3e 62 f5 96 be ca 3f b7 bc
       -0.2639484 0.1416165 -0.29484087 -0.022369284
000340 a9 29 8b 3e 1a bc 5d bd b1 d8 04 bd fb 85 33 bd
       0.27180222 -0.054134466 -0.032433216 -0.043828946
000350 d9 83 16 3e c7 d7 58 3e fd 15 cc bd f7 b3 8c bd
       0.14698733 0.21176063 -0.099651314 -0.06870263
000360 90 7e 6a 3e 81 d5 72 3e 68 91 44 3e 62 07 72 be
       0.22899842 0.23714258 0.19196093 -0.23635629
000370 e5 53 bb be 1e 75 20 be 1e 4b 58 3e b2 ec 2a 3d
       -0.36587444 -0.15669677 0.21122405 0.041729636
000380 7f 96 2d be 21 69 06 be a9 1b 7c 3c 52 05 c6 bd
       -0.16951941 -0.13126041 0.015387454 -0.096689835
000390 6b 3b d0 bd 3f 45 79 be 6b bf 14 be 06 c0 85 3e
       -0.10167583 -0.24342822 -0.14526145 0.26123065
0003a0 8f 2f bf bc 8d f8 bb bd ed 40 f1 bd 42 59 bd 3d
       -0.023338107 -0.09178267 -0.11779962 0.0924554
0003b0 4b 99 49 be 68 c0 f9 bb fa ac 4d 3e 08 a7 33 3e
       -0.19687383 -0.0076218136 0.20085517 0.17544186
0003c0 25 d7 f8 3c 42 8c 83 3e 14 2b f2 3d 57 4a 7e bd
       0.030376026 0.25692946 0.11824623 -0.062082615
0003d0 2c 27 2f be 8b 1a 7c bc 64 20 07 be 49 e7 05 bd
       -0.17104787 -0.015387188 -0.1319595 -0.032691274
0003e0 de c1 1f 3e c6 08 35 3e d8 05 9b 3e dd bf 40 bd
       0.15601298 0.17679128 0.30277896 -0.047057975
0003f0 5b eb 74 3e d5 90 03 be 60 4b 77 3e d9 3b ff bd
       0.23917906 -0.12848218 0.24149847 -0.12462587

gru.bias_ih_l0 f4 [30]
000000 37 0f ed bd 29 5b b5 3d 6d ac 5f bd ec f7 2c 3e
       -0.115751676 0.08855278 -0.054607797 0.1689145
000010 e6 97 32 be 49 5f 0f be a2 41 c8 bd 34 de 9f bd
       -0.17440757 -0.14001192 -0.097781435 -0.07806054
000020 bf 12 26 be 17 2b 3d 3e 27 16 23 3e 53 0d 88 be
       -0.16218089 0.18473469 0.15926419 -0.26572666
000030 be f8 29 3e d5 88 1f 3d a9 02 a7 3d f6 3c 10 be
       0.16598794 0.038948853 0.08154804 -0.14085755
000040 b0 73 b0 bc 63 37 5d be 47 8b 8e 3e af 57 ad bd
       -0.02153954 -0.2160316 0.27840635 -0.0846399
000050 78 4a a6 3d 95 15 0e be 79 1d 72 be 87 aa 27 3c
       0.081196725 -0.1387542 -0.23644055 0.010233528
000060 c8 a4 de bd 6a d9 9a 3e 7e 41 47 3e e2 17 9a 3e
       -0.10871273 0.30244 0.19458577 0.30096346
000070 ef 20 04 be 9b 99 3d be
       -0.12903188 -0.18515627

gru.bias_hh_l0 f4 [30]
000000 d2 cd 91 be f0 1e 0e 3e b1 5f 90 be e9 95 01 bd
       -0.2847734 0.13878989 -0.28198007 -0.031637106
000010 28 a8 13 be 0b 29 b0 3e a5 7a 3d 3e f9 aa 37 3e
       -0.14419615 0.34406313 0.18503816 0.17936315
000020 9c 80 6f be 3c 9b 08 3e 0c d2 1e be e8 d2 43 bc
       -0.23388904 0.13340467 -0.15509814 -0.011952139
000030 32 4f 54 3e 19 44 11 be 29 e8 c9 3e 13 d7 df bd
       0.20733336 -0.14186133 0.39434937 -0.10929694
000040 b2 dc 99 be 4f 4e 7f 3e c6 fc 62 be bd 64 a0 3d
       -0.3005119 0.24932216 -0.22166738 0.07831714
000050 f3 14 a5 3e 67 ea da bb a2 f2 03 be 7a 9e 6b 3e
       0.32242545 -0.006680775 -0.12885526 0.23009673
000060 60 5e b9 bd 05 42 20 3e 91 1b 4f be 81 87 2f be
       -0.09051204 0.15650184 -0.2022536 -0.17141534
000070 9b 45 c0 bd eb 26 2e be
       -0.09388276 -0.17007034

gru.weight_ih_l0_reverse f4 [30, 40]
000000 eb 14 86 bd e4 56 57 3c 66 88 90 3c 4e 99 5e 3e
       -0.065469585 0.013143275 0.017643165 0.21738169
000010 2a e0 b7 bd 3d fb 0c be 40 05 a2 3e 23 fa 4c 3e
       -0.08978303 -0.13767715 0.3164463 0.20017295
000020 d0 8c 55 3e 5d a0 54 be 28 57 0a 3d 5e f4 70 bd
       0.20854497 -0.20764299 0.033774525 -0.058826797
000030 bf 2e 74 be 6d eb 86 3e e5 52 9a be 84 5d 8e 3e
       -0.23845957 0.2635149 -0.30141369 0.27805722
000040 b8 22 e0 bd 50 e1 55 be 29 7d e3 bd d3 8c 27 3c
       -0.10944122 -0.20886731 -0.11107857 0.010226446
000050 3c a6 bd bd 68 7a 17 be f5 cb e7 3d f4 3d 12 bd
       -0.09260222 -0.14792788 0.113181986 -0.035703614
000060 f0 b3 05 3e ec 6f 28 bd 98 3d 84 3e af ff 85 3b
       0.13056922 -0.041122362 0.25828242 0.0040893178
000070 ef 93 05 be c7 f9 93 bd 21 70 8a 3c 85 22 12 bd
       -0.13044713 -0.072253756 0.01689917 -0.03567745
000080 d5 58 58 be db 58 5d 3e bb a2 52 3e 50 71 03 3e
       -0.21127637 0.21615927 0.20569889 0.12836194
000090 55 60 8a 3e 70 ac 7b 3e 66 ed b5 3d 51 b9 1d 3e
       0.2702662 0.24577498 0.08883171 0.15402724
0000a0 c1 a5 9f 3e 0d d3 9e bd 80 a0 d7 3d 65 5d c9 3d
       0.31181148 -0.077550985 0.1052866 0.09832267
0000b0 3c 30 05 3e b5 30 53 bc 08 71 84 be 2d ac 12 3c
       0.13006681 -0.012890031 -0.25867486 0.008952183
0000c0 9d a7 10 3e ba 56 40 be 58 89 dc bd 72 62 4e 3e
       0.1412644 -0.18783084 -0.10768384 0.20154741
0000d0 e7 58 d9 3c 64 1b 01 3e fd 76 08 be 44 53 54 be
       0.02653165 0.12608105 -0.1332664 -0.20734888
0000e0 3a b8 f7 bc 0f 11 19 be f4 6a 90 be ad 76 90 be
       -0.030239213 -0.14947914 -0.282066 -0.28215542
0000f0 89 33 89 bd 7a f8 11 3e a2 02 9e be 47 a8 3a bd
       -0.06699283 0.14254943 -0.30861384 -0.045570638
000100 fa 5b 01 3b 76 04 d1 bd 87 54 a0 be 70 c5 2c bd
       0.001973866 -0.10205929 -0.3131449 -0.04218048
000110 7a b6 e8 3d 79 2d 7d bc 16 f1 5b 3e 35 52 9e 3e
       0.1136293 -0.015452736 0.21478686 0.30922094
000120 27 d8 93 bc ba c9 01 be 35 98 4c 3e 55 c1 8f be
       -0.018047405 -0.12674609 0.19979937 -0.28077188
000130 bf 5b 8f 3e 0d e4 55 3e e5 9c 63 be d3 56 de 3d
       0.27999684 0.20887776 -0.2222782 0.10856404
000140 fd 61 c0 3d 75 14 5a be e9 d7 a6 3d 67 85 37 be
       0.0939369 -0.21296866 0.0814665 -0.17921983
000150 33 c9 41 3e e6 fa 8a be 10 51 95 3e fa 3a 70 be
       0.18924408 -0.27144545 0.29163408 -0.23459998
000160 39 cb 9c 3c b8 48 f5 bd f6 10 4c be fc 2d 9f 3e
       0.019139873 -0.119767606 -0.19928345 0.3108977
000170 b6 12 44 be c7 02 eb 3c 84 2c 07 3e 0b 9c 2c be
       -0.19147763 0.028687848 0.13200575 -0.168564
000180 5d 95 59 be ee 35 a6 bd d7 2c f8 3d 70 96 79 bc
       -0.21248384 -0.08115755 0.121179275 -0.015233621
000190 6c 96 4b bd 62 23 8c be ff 28 36 3e 98 da 90 3e
       -0.049704 -0.27370745 0.17789076 0.28291774
0001a0 cd 61 ab 3d c8 51 8d 3c 6d 68 f6 bc c0 f5 c8 3d
       0.083682634 0.01725091 -0.030079091 0.09812498
0001b0 85 21 29 3d bc 69 4c 3e a3 29 bc 3d 15 2a e5 3d
       0.041291732 0.1996221 0.09187629 0.11189667
0001c0 c5 b4 3d be 3b c0 24 3e 18 26 5b 3e 27 40 e2 bd
       -0.1852599 0.16088955 0.2140125 -0.11047392
0001d0 1d 0c 69 3e 3d 20 24 be d8 45 fc bd 93 3f 88 bb
       0.22758527 -0.16027923 -0.12318009 -0.0041579693
0001e0 88 5d 6e 3d fd 1c a9 3d 18 0b 0f be 51 4f 9c be
       0.058194667 0.08257482 -0.13969076 -0.30529264
0001f0 06 b8 d4 bb e0 13 19 3b f8 c2 3a be 26 ab 10 be
       -0.006491664 0.0023357794 -0.18238437 -0.14127788
000200 15 8d dd 3d e7 45 37 3e 5e 53 f1 bd 82 ed 8b be
       0.10817925 0.1789776 -0.11783479 -0.27329642
000210 cd 4d 07 be e2 d5 10 be fe d9 9f be 49 54 71 3e
       -0.13213272 -0.1414409 -0.31221002 0.23567308
000220 a3 e8 2b be 74 c5 8d be 6a 15 67 3e c6 17 32 be
       -0.16787963 -0.27689707 0.22566763 -0.17391881
000230 bf 2c 88 3e 7a 90 d7 3d 6f d2 a1 bd 6e 9a 9a be
       0.2659664 0.105256036 -0.07901465 -0.30195946
000240 5b f0 6e be 92 73 2b be 82 c4 8b 3e 18 30 81 bd
       -0.23333876 -0.16743305 0.2729836 -0.06308001
000250 fc 0c 4c 3e ba 53 47 3e 53 84 67 be 23 5c 98 bd
       0.19926828 0.19465533 -0.22609071 -0.07439449
000260 9a 18 ff bd 0b 2f 7b be 9c bb 0b bd b2 58 7b 3e
       -0.12455864 -0.24529664 -0.034114465 0.24545553
000270 78 dd 9e be a4 03 f2 3c f1 0d 96 be 00 cb 9f bd
       -0.31028342 0.029542752 -0.2930751 -0.07802391
000280 e0 d4 e3 3c 90 11 28 3d 3e 9d 8b be a3 ae 9a 3e
       0.027811468 0.041032374 -0.27268404 0.30211362
000290 20 c8 82 be 93 de 8e 3e 0e 98 93 be c8 71 d1 3d
       -0.25543308 0.27904186 -0.28826946 0.1022678
0002a0 0c 0c 2f 3e 40 4f 84 3b 80 89 65 3c 9d 3d 98 be
       0.1709444 0.0040377676 0.014009833 -0.29734507
0002b0 14 55 86 3d 6a ff 73 3e 70 54 b8 3d ac f3 9a be
       0.06559196 0.23827901 0.0900048 -0.30264032
0002c0 b2 0c 56 be 80 26 ff bb 40 5e 79 bd e0 21 57 3d
       -0.2090328 -0.007786572 -0.0608809 0.05252254
0002d0 96 32 2b 3e 66 d5 59 3e a0 0e fe 3c 4f 81 a1 3e
       0.16718516 0.21272811 0.031012833 0.31543967
0002e0 c0 cc 87 be 40 79 10 3d 97 07 92 3e a0 ca 4b bd
       -0.265234 0.035271883 0.28521416 -0.049753785
0002f0 02 63 4a 3e fb 65 92 3e 8c 36 47 be 2e c8 c9 bd
       0.19764331 0.2859343 -0.19454402 -0.09852634
000300 5a 17 92 be a2 d0 08 3e 2d e0 81 3e 06 32 7a 3e
       -0.2853344 0.13360837 0.25366345 0.24433145
000310 e6 a6 23 3e 3a d8 70 3e bc ab 23 be cc 42 e4 bd
       0.15981635 0.23519984 -0.1598348 -0.11145553
000320 24 2a 00 be 63 eb 10 be ea ed e0 bd 1d 1d 07 3e
       -0.12516075 -0.14152293 -0.109828785 0.131947
000330 11 40 51 3e 9b b6 40 be 2e 09 e9 3d 58 5a 00 3e
       0.20434596 -0.18819658 0.11378704 0.12534463
000340 04 a8 73 3e f7 08 53 be 8f 08 2c 3e 3c bf ca 3d
       0.23794562 -0.20608889 0.1680014 0.09899756
000350 d6 c2 97 3e 05 8d 26 bd 97 17 35 3e b8 8c a5 3b
       0.29640836 -0.04066183 0.1768478 0.0050521754
000360 8e 4a 9a 3e b7 bf 47 3e 7e 1d 86 3c b0 ca 81 be
       0.30135006 0.19506727 0.016371485 -0.2534995
000370 28 6b 65 be 08 67 7c 3e d6 c9 a1 be e9 6c e8 3d
       -0.22404158 0.24648678 -0.315993 0.11348898
000380 dd c0 e9 bd e5 6e f1 39 e3 d4 4a bd b9 eb 28 3e
       -0.11413739 0.00046049725 -0.04951943 0.16496171
000390 ae 93 82 3e e6 a3 88 3e 82 cc 5b be ca 01 55 bd
       0.25503296 0.26687545 -0.21464732 -0.05200366
0003a0 b3 45 89 3e bb 1f 65 bd 5b 67 6e bd 43 80 48 be
       0.2681099 -0.055938464 -0.058204036 -0.19580178
0003b0 60 62 b2 bd 41 99 3e be 9c 99 55 3e e2 81 b9 bd
       -0.0871017 -0.18613149 0.20859379 -0.09057976
0003c0 4d 4b 10 be bf 8e ce 3d 94 be 66 be de 84 ef bd
       -0.14091225 0.100858204 -0.22533637 -0.11695264
0003d0 f5 5a fd bd 04 05 27 3e 2c d6 62 be 6a c6 80 3e
       -0.12370864 0.16310507 -0.22152013 0.25151378
0003e0 96 59 90 3e 9d 7a 6c 3e 77 9b c0 3d a0 45 91 3d
       0.2819335 0.23093648 0.094046526 0.07093358
0003f0 56 52 2b be b2 36 9b 3d 42 ed ea 3d 2a 32 9c be
       -0.16730627 0.07578792 0.114710346 -0.30507022

gru.weight_hh_l0_reverse f4 [30, 10]
000000 18 22 c5 3e 91 26 c6 bd 54 da 1b bd 12 06 0e 3e
       0.38502574 -0.09675325 -0.03805001 0.13869503
000010 9d d0 15 3e 6c 24 af 3d 6e 87 90 3e 2b 95 3b 3d
       0.14630361 0.08551869 0.28228325 0.045796555
000020 09 99 8f be 5e 6c 28 3e 52 6d 99 3e 73 6b 31 3e
       -0.28046444 0.16447589 0.29966217 0.17326145
000030 55 02 b8 bd e5 78 74 be bf 4e 8f 3c 64 a5 72 3e
       -0.0898482 -0.23874243 0.017493604 0.23695904
000040 e4 a6 58 3d 97 4b 23 bd 59 b5 7d bd 87 33 bb 3d
       0.052893534 -0.03986701 -0.061940525 0.091406874
000050 e8 82 b5 be 56 89 80 be 0c e1 d6 3d bc 65 07 3e
       -0.35451436 -0.2510478 0.10492143 0.13222402
000060 b9 16 0c be ac a5 76 3e 8c 35 08 bd d2 0d 33 3d
       -0.13680543 0.24086636 -0.03325419 0.043714352
000070 49 0f 3b 3e 6d 70 15 be e0 e9 95 3c 89 e1 06 be
       0.1826755 -0.14593668 0.018299997 -0.13171972
000080 99 f7 4b 3e 09 17 b7 3e d7 02 c1 bc a1 fe 53 be
       0.1991867 0.35759762 -0.023560924 -0.20702602
000090 a4 c6 d0 3d c1 d5 ea bd a8 72 b7 be 3c 0d 6c 3e
       0.10194138 -0.114665516 -0.35829663 0.23051924
0000a0 f8 ef a4 3e 91 31 a2 3e d7 51 7d be 77 6d 55 be
       0.32214332 0.3167844 -0.2473825 -0.20842539
0000b0 88 44 60 3d 20 ba ab be e7 ea f7 bd 45 ae a5 be
       0.054752856 -0.3354044 -0.12105351 -0.3235952
0000c0 96 92 9b 3d 19 73 af bc 3b 12 ac be 35 fb e8 3d
       0.075963184 -0.021417188 -0.3360766 0.11376039
0000d0 64 9e c7 3e 1f 5d b1 bc 7d 78 8c bd 6f 67 45 bb
       0.3898803 -0.021650849 -0.06858919 -0.0030121466
0000e0 7d 44 bc bc 9b 2b 26 3e f3 f1 af 3d a4 87 29 3c
       -0.022981877 0.16227572 0.0859107 0.010347281
0000f0 90 f8 24 3d e5 3a 51 be 74 a3 80 be 09 69 16 3e
       0.04027611 -0.20432623 -0.25124705 0.14688505
000100 f8 cf ad bb f6 7f 56 be e9 53 ce 3d 89 ea 3f 3e
       -0.005304333 -0.2094725 0.10074598 0.18741812
000110 97 6e 48 3e b7 6f 93 be 6d 1d 7e 3e d6 53 c8 3d
       0.19573437 -0.2879617 0.24815913 0.097816154
000120 f1 09 61 be a1 e9 34 3e 0b da 18 bd 99 1b 15 3d
       -0.21976449 0.17667247 -0.037317317 0.036403272
000130 50 97 8a 3e 9c 65 51 be a2 d5 69 be 57 dd 8f 3e
       0.27068567 -0.20448917 -0.228354 0.28098556
000140 f0 59 a9 3c e1 29 a4 3d a9 42 09 3f b2 4c a2 be
       0.020672768 0.080158 0.5361734 -0.3169914
000150 40 a7 53 3e 45 91 9d 3e f8 37 ed 3c c7 76 d2 3a
       0.2066927 0.30774894 0.028957352 0.0016057127
000160 e4 17 d6 bd 58 2b 7e 3e 3b 9d 1f be f1 ae b9 3e
       -0.104537755 0.24821222 -0.15587322 0.36266282
000170 de 81 b5 3e ab fa 76 be 77 16 c5 3c b0 15 4c 3e
       0.35450643 -0.2411906 0.024058564 0.19930148
000180 93 23 52 be b2 29 cb 3e 02 7d 1a be bf 2a e3 3d
       -0.20521383 0.39680248 -0.15086749 0.110921375
000190 e2 8c ff bd 86 18 59 be 43 10 c7 3d 94 b4 c2 3c
       -0.12478043 -0.21200761 0.097198986 0.023767747
0001a0 61 7a 51 3e 96 ab b9 be eb a7 5a be ee 62 65 3e
       0.2045684 -0.36263722 -0.21353118 0.2240102
0001b0 d2 ec 0c be c8 85 40 3e 70 92 d9 3d 39 f7 f5 3d
       -0.13762215 0.18801033 0.10623634 0.120100446
0001c0 8a 3d 95 be f6 d2 9a 3e b0 2e cc bd e2 2c 39 be
       -0.29148513 0.30239075 -0.099698424 -0.18083528
0001d0 28 0d 71 3e d2 7e 13 3d e8 2c 1e 3e 00 cc 6d be
       0.23540175 0.036009617 0.15446818 -0.23222351
0001e0 ad 26 9a 3e ce 36 b7 3c 6f cf 83 3e c2 19 8e be
       0.30107632 0.022365 0.25744197 -0.27754027
0001f0 39 9e bc ba 42 b4 0a be 80 ec 9c bd 2e 61 5d 3d
       -0.0014390416 -0.13545325 -0.07662296 0.054047756
000200 5e d2 85 be cd 25 c8 3c d2 8f 0b be 28 09 21 3e
       -0.2613706 0.024432087 -0.13629082 0.15726149
000210 91 b0 0c be cc a8 16 be 20 31 62 be c7 73 a0 3d
       -0.1373923 -0.14712828 -0.22089052 0.07834583
000220 e6 df 54 bd 03 ef 89 3e 01 19 a6 3e d8 cb 6c be
       -0.05197134 0.26940164 0.3244095 -0.23124635
000230 7c ab 3c 3e 1b 52 34 be fa e6 82 bc ff ea a5 bd
       0.18424791 -0.17609446 -0.015979279 -0.081014626
000240 45 69 50 3e 3e 54 9b bd c8 e7 99 be ef a9 f9 bd
       0.20352657 -0.07584427 -0.30059648 -0.121906154
000250 f2 d5 f1 bc 87 c8 0a be 58 99 86 bc 48 53 e6 bd
       -0.029520962 -0.13553058 -0.016430542 -0.112463534
000260 6b 16 42 3e 3d 9d 8c 3e 77 5e 81 bd a4 17 7d be
       0.18953864 0.27463713 -0.06316846 -0.2471605
000270 f0 8a e3 3c 23 6f 32 3e d6 ee 3a 3e b2 4b 61 3c
       0.027776212 0.17425208 0.18255171 0.013750957
000280 8b 11 9c be 51 1c 3a 3e 6c bf b7 3d 4b b9 ca bd
       -0.30482134 0.18174864 0.08972058 -0.09898623
000290 e2 eb 17 be c7 4c 09 be d4 5d 41 be 80 d7 0c 3e
       -0.14836076 -0.13408194 -0.18883449 0.13754082
0002a0 58 52 7b 3e 49 42 f1 bc fd e9 c8 bd a1 c9 a1 3e
       0.2454313 -0.029450553 -0.09810255 0.31599143
0002b0 76 35 1e 3e 24 4c b0 be fa 79 84 3e 59 b3 6a 3e
       0.15450081 -0.3443309 0.2587431 0.22919978
0002c0 db 8e 93 3c 4b ae 50 bd d3 14 84 bd d8 a7 9d bc
       0.018012455 -0.05094747 -0.064492844 -0.019245073
0002d0 3b 73 8d 3d 61 db 11 3e 8d d4 bc 3b a5 01 ea bd
       0.06906744 0.14243843 0.0057626427 -0.11426095
0002e0 1b 45 fe bb 2b a2 6b be bb 47 73 bd b0 0b 50 3e
       -0.007759703 -0.23011081 -0.05939458 0.20316958
0002f0 d9 4a 76 3e 86 9c 16 be a8 db 96 be de 86 57 3e
       0.2405199 -0.14708146 -0.2946446 0.21047541
000300 e5 f3 53 be ac 8d 1a 3d 1e ca 0d be 0c 9f 67 3e
       -0.20698507 0.037732765 -0.13846633 0.22619265
000310 7b b5 93 be 52 f8 9a 3e 2f d2 1a 3e da 33 32 3d
       -0.28849396 0.30267578 0.15119241 0.04350648
000320 3f b1 5a be 0a 41 4d 3d 26 8b 82 3e 5b 6a 18 3e
       -0.21356677 0.050110854 0.25496787 0.14884321
000330 5e 2f c8 3d 4c 96 b3 3e f8 79 b2 be 09 99 86 3e
       0.097746596 0.35075605 -0.3485868 0.26288632
000340 4e 8b 71 be 4f f4 59 bd bd 9c e5 bc 2a e2 fd bd
       -0.23588297 -0.053211506 -0.02802884 -0.12396653
000350 87 96 ba be 92 10 26 be bc 52 21 3e df 77 d5 be
       -0.36442968 -0.16217259 0.15754217 -0.41693017
000360 55 db ab 3d 81 60 59 be 77 84 79 be 2b 37 20 3e
       0.08391444 -0.2122822 -0.24366938 0.15646045
000370 6c b6 8b be 97 f2 63 be 78 29 a7 3e 94 d1 80 be
       -0.27287614 -0.2226051 0.32648826 -0.25159895
000380 21 9c 94 bd e5 ba e5 3e f6 64 25 3d e6 fd e2 3e
       -0.07256342 0.44869152 0.040379487 0.44334334
000390 ad f5 2d 3d 36 66 00 be a1 54 96 be 0c d3 87 3e
       0.042470623 -0.1253899 -0.29361442 0.26528203
0003a0 f6 c3 56 be 5a 2f 79 bd 6b 6a b0 3d 08 a9 9b 3e
       -0.2097319 -0.060836174 0.086140476 0.30402398
0003b0 a3 4b 28 3e 9f ec 00 bd 5b 14 56 3e 1c 7e d1 bd
       0.16435103 -0.03147566 0.20906202 -0.102291316
0003c0 f7 22 70 3e 98 81 a1 bd b3 95 38 be 1c f1 bd 3b
       0.23450838 -0.07886046 -0.18025856 0.0057965647
0003d0 3c 86 49 3e 89 74 75 be b7 80 b0 3e 4c 72 40 3d
       0.19680113 -0.23970236 0.34473202 0.046984002
0003e0 d8 c5 3b 3d cc 6c ba be 37 4f b9 3c e1 09 81 be
       0.045842975 -0.3641113 0.02262078 -0.2520285
0003f0 dc 0e cb 3e 55 66 a1 be 5b 78 18 3e 00 25 03 3d
       0.39659774 -0.31523386 0.14889662 0.032017708

gru.bias_ih_l0_reverse f4 [30]
000000 9e af 10 be d5 09 b1 be 30 de 91 bd 12 84 71 be
       -0.14129493 -0.34577814 -0.07122457 -0.23585537
000010 c3 fe ba 3d f9 81 6d 3e 4d 7f 9c 3e 13 f1 b5 3e
       0.09130623 0.23194112 0.30565873 0.35535488
000020 2b 71 b3 3e c5 1a 65 3e 9e 53 4a be 3e 86 ca bd
       0.35047278 0.22373493 -0.1975846 -0.09888886
000030 8b 7c 63 3e 8a dc 9f be 5d 8a 74 3e 13 30 b2 be
       0.22215478 -0.31222945 0.23880906 -0.34802303
000040 42 08 6e 3e bb 0f 63 be 09 af d0 3d 62 85 1d bd
       0.23245338 -0.2217397 0.10189635 -0.038457282
000050 75 c4 f9 bc 59 a3 95 bd ff 4d 20 3e 89 aa a2 3d
       -0.030489186 -0.07306547 0.15654753 0.07942683
000060 f0 76 02 be cc f9 97 3c e6 5b 40 be 02 54 6a bd
       -0.12740684 0.01855173 -0.18785056 -0.057209022
000070 44 23 0e bc ca 24 dd bd
       -0.0086754 -0.107980326

gru.bias_hh_l0_reverse f4 [30]
000000 5e 78 a4 be 62 a3 72 be 1d 45 0e 3d 1c f1 fc bd
       -0.32123083 -0.23695138 0.03473388 -0.123506755
000010 51 26 b6 3d 1b d1 0b be 04 f0 21 3d cc 30 cd 3d
       0.08894027 -0.13653986 0.039535537 0.10019073
000020 d5 1e 0c 3f 4e 81 c0 3e 1d 75 88 be e3 c6 62 3d
       0.54734546 0.37598652 -0.2665185 0.055365454
000030 da c3 ab 3b 41 ba ae bd 5a 01 5a 3e fa db aa be
       0.005241853 -0.08531619 0.21289578 -0.33370954
000040 73 02 4c be 35 b1 76 be ee 2a 84 be 78 00 9a 3e
       -0.1992281 -0.24091037 -0.25814003 0.30078483
000050 97 b3 35 bd e4 a2 6c 3e 82 65 e1 3e 2b d0 40 be
       -0.044360723 0.23109013 0.44022757 -0.1882941
000060 4c 11 83 3e 3a 00 76 3e 24 40 33 3e 22 80 91 3e
       0.25599134 0.24023524 0.17504936 0.2841807
000070 11 e3 f6 3e 83 aa ee 3e
       0.48220113 0.46614465

gru.weight_ih_l1 f4 [30, 20]
000000 3f 29 13 3e 5c 8e 9d 3e 09 8c 2e be 36 7e 5a 3e
       0.14371203 0.30772674 -0.17045607 0.21337208
000010 77 ab 52 3e ed 9a 82 3e b1 e5 88 3e 01 45 80 3e
       0.20573221 0.25508824 0.2673774 0.25052646
000020 30 f6 09 be a8 24 2b bd d2 48 96 be 2a 43 8c bd
       -0.1347282 -0.041783005 -0.29352432 -0.06848748
000030 0a 5b 1d 3e 3c 69 18 3e e4 a5 0c 3e da e9 ea 3e
       0.1536676 0.14883894 0.13735157 0.4588154
000040 d3 b4 37 3e 42 15 06 be f3 35 9f 3e a6 7d c1 3d
       0.17940073 -0.13094047 0.31095847 0.09447794
000050 0f f3 a1 bd cc f6 4a be 9b 12 90 3d e9 69 57 be
       -0.07907688 -0.19820708 0.07034799 -0.21036495
000060 95 eb 1f 3e 88 af 07 3d 8f fd 81 bd 40 90 33 3e
       0.15617211 0.033126384 -0.063471906 0.17535496
000070 14 43 86 be 26 03 1c 3e 51 26 5b bd d8 e9 a2 bc
       -0.26223052 0.15235576 -0.05350334 -0.019886896
000080 d3 cb 82 3e d4 6f 08 be dd e5 2a be 28 c1 93 3e
       0.2554613 -0.13323909 -0.16689248 0.28858304
000090 aa 93 8b be 29 c1 42 be d6 ff 1f be 15 1d d0 3e
       -0.27261096 -0.19018997 -0.15624937 0.40647188
0000a0 ce 51 99 3e 86 e4 69 3e 03 e4 9b 3e 67 b3 85 3c
       0.29945225 0.22841081 0.30447397 0.016320897
0000b0 b9 94 19 be 6c 5f a4 bd dd 8f 2b 3e 7f 57 89 3e
       -0.1499814 -0.08026013 0.16754098 0.26824567
0000c0 0f 4b b3 bd 9f 48 53 3e ca a7 a2 be 50 53 70 be
       -0.08754551 0.20633171 -0.31768638 -0.23469281
0000d0 6d 53 9b be ce 35 41 3d 17 93 66 be 03 b7 c7 3d
       -0.30337086 0.047170453 -0.22517048 0.097517036
0000e0 70 5d 52 3c c1 84 67 be 9c 19 a8 be 18 98 f0 3e
       0.01283966 -0.22609235 -0.32832038 0.46991038
0000f0 43 a5 a8 be f6 a7 32 be 84 71 b8 37 3d 29 a0 bd
       -0.32938585 -0.17446885 2.198737e-05 -0.078203656
000100 ec 93 ce 3a 46 f2 98 bd 21 8c c6 3c c8 91 2b bd
       0.0015760637 -0.07468085 0.02423674 -0.041887075
000110 8f 3a e6 bd 62 72 1c 3e 84 0b d8 3e f4 da a1 be
       -0.11241638 0.15278009 0.42196286 -0.3161236
000120 6e 5e 72 3d d1 11 8e 3e 8b 95 8c be 24 bf 7e bc
       0.059172086 0.27747968 -0.27457842 -0.015548501
000130 34 d9 e7 bd 5c 4a 8a be 2a 47 a8 3e b8 7e 7a b9
       -0.11320725 -0.27009857 0.32866794 -0.00023889064
000140 c6 2d 8e be e9 15 d7 bd e2 f8 83 3e c1 4e 1f be
       -0.27769297 -0.10502226 0.2577582 -0.15557386
000150 57 41 8f 3d 78 65 b3 3d 46 26 80 3e 48 be 07 3e
       0.069948845 0.08759588 0.250292 0.1325618
000160 96 64 17 3c 39 52 81 3e 0d e8 62 3d 02 ff 18 be
       0.00924029 0.25258043 0.055397082 -0.14941028
000170 06 7e f0 3d 6c 1d 26 bd bb fa ff bd 4c a6 8d 3e
       0.11742787 -0.040555403 -0.12498995 0.27665937
000180 20 a0 e1 3d b3 65 8c bd c5 2e a6 3e e4 10 dc 3e
       0.110168695 -0.06855335 0.32457557 0.42981637
000190 1a 9d e0 3c b4 64 94 bd 64 9a 29 3e 9d a1 6a 3e
       0.027418662 -0.0724577 0.16562802 0.22913213
0001a0 0c db 27 be bf bd 14 be 28 29 13 be 30 68 a9 3c
       -0.16392154 -0.14525507 -0.14371169 0.020679563
0001b0 5c 1f 35 3c 98 88 8c 3e 35 69 e1 3e 21 49 89 3e
       0.01105484 0.27447963 0.4402558 0.26813605
0001c0 d1 ef 53 bd ae 94 4e 3e 07 6a 9c be 91 ea 0f be
       -0.05174238 0.20173904 -0.30549642 -0.14054324
0001d0 77 fa 96 3e 0a 35 2e 3e f1 ce 1f bd 54 9e e9 bc
       0.29487965 0.1701242 -0.039015714 -0.02851788
0001e0 cc 40 66 be bb cc 89 be 4f e7 ce 3d fe 9b 8d 3e
       -0.22485656 -0.2691401 0.10102712 0.27658075
0001f0 92 ae 9d 3e 2b e0 0e be dc 54 f0 3d 26 a6 3f 3e
       0.3079725 -0.13952701 0.11734936 0.18715724
000200 30 ae 96 be 8b 2a 59 3e 3f ec 22 bf a9 02 1c 3e
       -0.2942977 0.21207635 -0.6364173 0.1523539
000210 b5 9e 67 3e 1e 75 8f 3c 82 e1 71 be 80 9a 58 3e
       0.22619136 0.0175119 -0.2362118 0.21152687
000220 fe 22 87 bd de 90 40 be 3b 4b 00 bf 83 93 ac 3e
       -0.06598471 -0.18805262 -0.5011479 0.33706293
000230 19 da be bc 96 81 df 3d 62 da 0f be c8 34 fa 3d
       -0.023297356 0.109133884 -0.1404815 0.122170985
000240 b9 64 69 3d ea 3c b7 bd b8 02 4f be a6 d5 7a 3e
       0.056980822 -0.08947165 -0.20215881 0.24495563
000250 e5 fb f7 3d c9 98 ad bc 0b ea 96 bd e3 2a 8a be
       0.12108592 -0.021191018 -0.07368859 -0.26985845
000260 56 de ac bd 6d 06 6d be e0 23 a5 bd 53 5d 65 be
       -0.08440845 -0.23146982 -0.08063483 -0.22398882
000270 60 f7 1e 3e ac 77 76 be 7d f7 07 bf 4d 4e 0f bf
       0.15524054 -0.24069089 -0.5311201 -0.5597885
000280 d2 a1 7c 3e 87 3f c9 3d 25 e1 99 bd b4 5a 8a 3c
       0.24671105 0.0982657 -0.07513646 0.016888954
000290 c3 b2 3b be 78 e5 7d bd f3 da 30 be c4 43 c0 bd
       -0.18329911 -0.061986417 -0.17271022 -0.09387925
0002a0 e8 23 b3 3c 4c 31 6f be 42 f3 df bd 18 c2 aa bd
       0.021867707 -0.23358649 -0.109350696 -0.08337802
0002b0 90 0f 5e 3e 46 74 34 be 82 be 86 be cd f9 64 be
       0.21685624 -0.1762248 -0.2631722 -0.22360916
0002c0 e4 d5 b2 3e 1b e6 8e 3d 37 30 20 bd 9c 8e 49 3f
       0.3492881 0.06977483 -0.03910848 0.7873323
0002d0 c3 05 32 3b 1a 79 f2 bd 78 9e a7 3d 4a 79 a4 3d
       0.0027164079 -0.118395045 0.081845224 0.080309466
0002e0 26 67 8b be 41 69 26 be 17 2f 10 3e 02 e9 1d 3e
       -0.27227134 -0.16251089 0.14080463 0.15420917
0002f0 69 f5 a8 be b8 32 13 be 5a 65 a9 3e 37 ea 86 be
       -0.32999733 -0.14374816 0.33085138 -0.26350567
000300 87 e8 3b bb b0 be 99 be 21 9f 0c be 1d bd f4 3d
       -0.0028672533 -0.30028296 -0.13732578 0.11950133
000310 2c 5a 34 3e 02 9f 2c be cf 2f ce be ef d9 06 bf
       0.17612523 -0.16857532 -0.4027085 -0.5267629
000320 f0 05 78 3d 3d f8 87 bd e1 72 f9 bc c5 a8 c0 bd
       0.060552537 -0.066391446 -0.030450286 -0.0940719
000330 86 83 a3 3e 70 19 97 bc 11 57 af 3d 48 4f 89 be
       0.31936282 -0.018444747 0.085615285 -0.268183
000340 31 67 60 be 63 4d d9 3d 9e d4 1b 3e 87 cc aa be
       -0.21914364 0.106104635 0.15217826 -0.33359167
000350 4c 37 ca be 2b 4d f6 3c 98 be 50 3d a4 46 2a be
       -0.39495313 0.030066093 0.050963014 -0.1662851
000360 00 d2 c4 3e 0e fd 72 be 36 7b 1f 3f d0 f2 b2 3e
       0.38441467 -0.23729345 0.6229738 0.34950876
000370 6e 7a 7d 3c c0 30 5f be 37 5a a2 3e 13 bc d6 bd
       0.015471084 -0.2179594 0.31709453 -0.10485091
000380 be 1e 37 be 2f c9 a0 be be c6 0a 3e 40 2b f4 bb
       -0.17882821 -0.3140349 0.13552377 -0.007451445
000390 45 6d 77 be 5f 8a 99 bc f2 50 e1 bd 7b 86 e3 bc
       -0.24162777 -0.018742738 -0.11001767 -0.027774086
0003a0 53 44 05 3e 73 f3 a2 3e e7 01 02 bd ec 70 8e be
       0.13014345 0.31826362 -0.031740095 -0.27820528
0003b0 47 c9 2a be 1a 38 f9 3d da 28 37 be a4 d6 a9 3e
       -0.16678344 0.12168904 -0.17886677 0.3317157
0003c0 df 40 83 bd 9b f0 26 be 95 d0 42 3e bd 46 4a be
       -0.064088576 -0.16302721 0.1902488 -0.19753547
0003d0 26 cb 43 be 58 42 65 be 16 f5 6d bc 38 d6 29 3d
       -0.19120464 -0.2238859 -0.014523765 0.04146406
0003e0 84 49 85 3e a6 13 8e 3d 31 d2 0a be 40 88 43 3e
       0.2603265 0.069373414 -0.13556744 0.19094944
0003f0 54 e6 b9 3d 6c 41 94 be ad 4a 49 3e 54 d7 91 3d
       0.09077135 -0.28956163 0.19657393 0.07121149

gru.weight_hh_l1 f4 [30, 10]
000000 30 29 ff 3d fe d1 77 be 4b dd 92 be fe 4e 6b 3e
       0.12459028 -0.242012 -0.28684458 0.22979352
000010 07 df 94 3e 94 cd e0 bd f0 6e 9f 3d d6 96 4c be
       0.29076406 -0.10976711 0.077848315 -0.19979414
000020 f2 43 1b 3e b0 21 4b bd 10 0c 42 bd 60 75 37 3c
       0.15162638 -0.049592674 -0.047374785 0.011197418
000030 26 e4 67 3e 53 c6 8f be 03 e5 83 be a6 0d 23 3e
       0.22645625 -0.28080997 -0.2576066 0.15923175
000040 0a 7d 0c be cc 0d 07 3e 00 c5 e8 3b 08 7f cf bd
       -0.13719574 0.13188857 0.0071035624 -0.10131651
000050 5a 97 7b 3e 68 23 93 be e8 ad 60 3d c1 13 19 be
       0.24569455 -0.2873795 0.05485335 -0.14948942
000060 e4 09 0c 3e ac 6a 8b be d9 56 20 be ce ab 90 bd
       0.13675648 -0.27229822 -0.1565813 -0.07064019
000070 06 0f 3d be b6 a4 78 3e b8 01 c0 3d 9f 86 97 3e
       -0.18462762 0.24281582 0.09375328 0.29594895
000080 ae af c3 bd 04 1f d2 bd c0 38 fc 3d f6 4a 30 be
       -0.095549926 -0.10259822 0.12315512 -0.17216095
000090 38 a6 9e bd bd 56 8c 3e e7 6e 37 be d8 b3 14 3e
       -0.077465475 0.27409926 -0.179134 0.1452173
0000a0 00 44 a2 39 b8 2c a6 3d 24 90 87 3d 2e b5 a1 be
       0.00030949712 0.08113998 0.066192895 -0.31583542
0000b0 08 72 0d bd c2 93 40 3e f8 5a 52 3d bc ef 8f be
       -0.034532577 0.18806365 0.051356286 -0.2811259
0000c0 0a 9b 0d 3e 70 1e f2 3d f8 63 7a bd ba 77 32 be
       0.13828674 0.11822212 -0.061130494 -0.17428485
0000d0 e0 5a 1e 3e 00 2d d0 3b 62 8d 7a 3e 5d 2e 97 3e
       0.15464354 0.0063530207 0.24467996 0.2952756
0000e0 c0 c0 6b bc b8 88 6c 3d 10 5e fa 3c ba 04 35 be
       -0.014389217 0.057747573 0.03056243 -0.17677584
0000f0 bd 9c 99 3e 16 3c bb bd de 5c 32 3e ce 67 0b be
       0.30002394 -0.0914232 0.17418239 -0.13613817
000100 48 aa 7b 3d 22 78 30 3e 36 75 cc bd ee 5b 47 be
       0.06144169 0.17233327 -0.09983294 -0.19468662
000110 1b f3 9b 3e 62 af 16 3e 30 3e c0 3c 00 f6 9a 3c
       0.30458912 0.1471534 0.023467153 0.01891613
000120 ee cd 5c 3e a1 50 29 be 04 fd 40 be 58 42 33 3d
       0.21562931 -0.16534664 -0.18846518 0.043764442
000130 9e d7 63 3e 08 27 21 bd 7c 51 7c be 28 4e 6e be
       0.2225022 -0.039343864 -0.24640459 -0.23272002
000140 40 34 c6 bc 4e c5 07 3e bc 38 bf 3d 60 be 2a 3c
       -0.024194837 0.1325886 0.09336993 0.0104213655
000150 25 2a 87 3e 00 d0 a9 38 8a 30 6c 3e 0c 66 1d be
       0.2639934 8.097291e-05 0.23065391 -0.15370959
000160 40 ed 20 bd b2 50 6a 3e b2 d7 83 be 44 af cd bd
       -0.03928876 0.22882345 -0.257505 -0.10043195
000170 7e 30 41 3e a0 31 aa 3c 72 32 56 3e 30 9a e8 bc
       0.18866155 0.020775616 0.20917681 -0.028393835
000180 4c dd 3c be 9a b7 15 3e 00 bd c5 bb 7a f9 7d be
       -0.18443793 0.1462082 -0.0060344934 -0.24802199
000190 58 ff 92 bd 66 1f 3f 3e 25 53 4f be 2c 3d 9b 3d
       -0.07177609 0.18664321 -0.20246561 0.07580027
0001a0 80 2c 45 3d 19 83 9b be e0 27 e5 3c a8 96 27 3d
       0.04813814 -0.30373457 0.027973115 0.04091516
0001b0 38 0a fe 3d 45 af a0 3e da ca 4b be 2e d8 3c be
       0.12404293 0.3138372 -0.199016 -0.18441841
0001c0 e2 0e 52 3e ee 19 2c 3e e2 af 36 3e be 43 47 3e
       0.2051349 0.16806766 0.17840531 0.19459435
0001d0 00 6b 87 3a de 6d a0 be 20 0f 12 bc 3d 6d 06 be
       0.0010331571 -0.31333822 -0.008914739 -0.13127609
0001e0 c7 56 65 be 00 93 65 bb 83 92 01 be 7c be bb 3d
       -0.22396384 -0.0035030246 -0.12653546 0.091671914
0001f0 ee b4 4d 3e 94 ec 85 bd 19 8d 86 3e 88 d9 c2 3d
       0.2008855 -0.06539264 0.26279524 0.09514147
000200 fa 40 48 3e 90 91 98 3d 80 c7 f3 3b ab 9d 82 3e
       0.19556037 0.07449639 0.0074395537 0.25510916
000210 46 70 06 3e b4 49 18 3e 60 00 b8 bd e2 3c 45 3e
       0.13128766 0.14871866 -0.089844465 0.19261506
000220 66 ae 5b 3e ac 67 d9 bd 6a e0 38 3e 08 15 12 3d
       0.21453246 -0.10615477 0.18054357 0.03566459
000230 88 f8 53 3d 8a 59 0d be 28 e0 55 bd 10 83 79 be
       0.05175069 -0.13803688 -0.052215725 -0.24366403
000240 0e c1 05 3e 04 90 01 3e 4e da 7f 3e d9 91 82 3e
       0.13061926 0.12652594 0.2498562 0.25501898
000250 1e 45 6a be 84 26 18 be 8e 20 f5 bd 7b c7 3b be
       -0.22877929 -0.14858443 -0.119691 -0.18337815
000260 64 b2 17 3e bb fe a0 3e 94 a8 7e be 86 b7 89 bd
       0.14814144 0.31444344 -0.24868995 -0.067244574
000270 3a 3c cf bd a0 c1 82 bd 72 13 11 3e 86 d2 67 be
       -0.10118909 -0.06384587 0.14167574 -0.22638902
000280 65 16 38 be 8c 10 8e bd b0 5e da 3c fe f5 99 bd
       -0.17977293 -0.0693675 0.026656479 -0.075176224
000290 f9 61 94 3e d9 6a 95 be 58 c3 e4 3d 1a 3e 67 be
       0.28980997 -0.2918308 0.11170071 -0.22582284
0002a0 08 d8 23 bd 50 19 20 be 20 24 87 bc 38 a4 56 be
       -0.040000945 -0.15634656 -0.016496718 -0.20961082
0002b0 9a 9b 11 3e 18 28 06 be 94 f2 c0 3d 03 68 0b be
       0.14219514 -0.13101232 0.09421268 -0.13613896
0002c0 a0 ee 8e bc b8 80 bd 3d 10 97 6e 3d c0 20 f7 3b
       -0.01744777 0.09253067 0.058249533 0.007541746
0002d0 da 44 46 be 84 26 37 be dc 65 1b be 81 5c 82 be
       -0.19362202 -0.17885786 -0.15175575 -0.254612
0002e0 70 0e 50 bd cd 4b 93 3e 9a 55 40 be 80 89 3b 3c
       -0.05079502 0.2876877 -0.18782654 0.011446357
0002f0 98 bb 99 3d 8c 50 e0 3d 0d 68 99 3e 92 4a 0e 3e
       0.07506484 0.10952863 0.29962197 0.13895634
000300 6a 3c 6a be 72 f7 6b 3e 3d dd 83 3e b8 da 1f 3e
       -0.22874609 0.23043612 0.2575473 0.15610778
000310 48 55 3e be 2d 52 85 be 20 fd 0d bc 60 7f 0b 3e
       -0.1858722 -0.26039258 -0.008666307 0.13622808
000320 90 1a 5c be 9a d7 72 3e 40 ec b5 3d aa 52 a3 bd
       -0.21494508 0.23715058 0.08882952 -0.07974751
000330 66 51 f0 bd a2 af 7d 3e 30 51 ee bc bf 90 89 3e
       -0.117342755 0.2477403 -0.029091448 0.26868245
000340 60 0a 35 bd ae 53 4d 3e 35 47 08 be fb c3 61 be
       -0.044199347 0.20051453 -0.13308413 -0.22047417
000350 50 36 23 3e a0 3a af 3c 99 ba 8d 3e 0e 76 61 3e
       0.15938687 0.02139026 0.27681425 0.2201769
000360 80 8b fb bc 31 84 81 3e b0 f0 b5 3c 5d a8 9e 3e
       -0.030706167 0.25296167 0.022209495 0.30987826
000370 f6 24 66 3e 00 57 88 3d d0 5a a9 3d 0e 3f 74 be
       0.22475037 0.06657219 0.08269274 -0.23852178
000380 c8 05 27 3d 0f 89 40 be 4a 8c 67 3e 40 dc 9d bd
       0.040776998 -0.18802284 0.2261211 -0.07708025
000390 57 df 4d be 14 a4 d4 3d 94 a1 b8 bd d0 0c d1 3d
       -0.20104729 0.10382858 -0.090151936 0.10207522
0003a0 32 75 5c 3e 00 f6 25 bd 00 d3 b1 bb ea 98 5a 3e
       0.21529081 -0.040517807 -0.0054267645 0.21347395
0003b0 9c b8 07 3e 01 1c 7e be 32 70 2a 3e b4 2f e9 3d
       0.13254017 -0.2481537 0.16644362 0.11386052
0003c0 10 cd 24 3d 25 1c 8f 3e b0 50 0f 3e cb c5 8d 3e
       0.040234625 0.2795116 0.13995624 0.27689967
0003d0 5a 33 77 be 00 e6 be 3c 95 dc a0 be ea fa d5 bd
       -0.24140683 0.023303032 -0.3141829 -0.10448249
0003e0 e0 69 5d bd 1c 67 94 be 19 b0 0f be 06 97 3a be
       -0.05405605 -0.28984916 -0.1403202 -0.18221673
0003f0 dc 1a 51 be 1d ab 62 be 48 fd 97 3d 08 2e 20 3e
       -0.20420402 -0.22135587 0.074213564 0.1564256

gru.bias_ih_l1 f4 [30]
000000 b0 17 50 bc 4d 65 b2 bd 90 fe 1b 3d 1e a2 88 3d
       -0.01270096 -0.08710728 0.038084567 0.066715464
000010 96 82 fd bd f1 45 a3 3c da e9 35 be aa 37 e6 bb
       -0.12378423 0.019930812 -0.17764989 -0.0070256786
000020 3f f4 40 3e 68 96 25 3e 66 8c 9a be 80 8e 1f be
       0.18843172 0.16170657 -0.3018524 -0.15581703
000030 4f 0b 3c 3e e8 42 e4 3d 4d 77 a0 be 98 6c 3a be
       0.18363689 0.11145574 -0.3134102 -0.18205488
000040 5c 97 a8 be 9b c0 0b bf 25 79 3e bd 5a e8 9e be
       -0.32927978 -0.5459077 -0.04650225 -0.31036645
000050 91 de f8 bd 28 fb ca 3d 1e 33 94 3e 12 be 2b be
       -0.12151826 0.099111855 0.2894525 -0.16771725
000060 d2 c5 0a 3e 86 e2 d4 3d fe df 83 be d5 21 d7 bc
       0.13552025 0.103947684 -0.2575683 -0.02626125
000070 4d cf 4f 3e fd fe 6b be
       0.20293923 -0.23046489

gru.bias_hh_l1 f4 [30]
000000 89 d7 fb bd 70 e1 37 be 15 ba 7e 3e 01 cf 31 3e
       -0.122969694 -0.17957091 0.24875672 0.17364122
000010 96 61 25 bd 11 36 1f 3c 83 57 0e 3e ab 4c 03 bd
       -0.04037627 0.00971748 0.1390057 -0.03205554
000020 9f 1b 68 be dc f7 da 3b 05 c8 26 be 5b 65 ea 3d
       -0.22666787 0.006682379 -0.16287239 0.11445113
000030 08 bd aa be 60 e6 8e be 13 fb 69 be c1 1b f1 bd
       -0.33347344 -0.27910137 -0.22849683 -0.11772872
000040 a3 87 9c be 2a e9 52 be 6f 14 76 be 35 73 80 bd
       -0.30572233 -0.20596758 -0.24031232 -0.06271974
000050 50 74 c2 3e dd a2 0d be 9b d4 86 3e 8a 75 01 be
       0.37979364 -0.13831659 0.2633408 -0.12642494
000060 ea e4 a9 be eb 91 81 3e de b9 25 be 4b b5 1c be
       -0.3318246 0.2530664 -0.16184184 -0.15303533
000070 3a 72 bc be 7c b5 b1 3e
       -0.36805898 0.34708774
