flask_app/src/model_checkpoint.pt (torch_old, 22679 bytes, 18 tensors)

gru.weight_ih_l0 f4 [30, 40]
00000000: e3ff 793e 72c8 a33d 9e18 84be 5bf5 c5bd
00000010: 2c24 843e bce2 68be 87e2 a3be 2fe3 a1bc
00000020: d75b 823d e43c 443e daee 91be 7c63 233c
00000030: f67e 4bbe 86a9 503b 6b00 a5be 7994 7c3e
00000040: 8463 c03b c033 ebbc d572 1abe cd79 32be
00000050: 714f 213d b0dc 88be 78b4 ffbd 9cb4 8c3d
00000060: 6846 a7be fdcf 8ebe 7155 82be aa92 e63d
00000070: 2c69 78be 467e 9bbc 0f1e 723e a4b6 67be
00000080: 7430 b53c 9aec 87be 9fd9 98be ea33 babd
00000090: 2bb3 e1bd 37ef 6abe c9bf 0fbe d32d 1bbe
000000a0: 1467 4cbd 2a06 9bbd 0b3a b0bc 0596 c2bd
000000b0: 7eca 863e 92aa 5dba b776 2c3d 7de8 8dbe
000000c0: 0f55 78be c600 97be 656b 20bc 43e6 c5bc
000000d0: 9999 80be 1a2d 263e 2d5e 533e 17c0 8ebd
000000e0: 6eb1 643e 3882 c33d 4e47 b9bd ce77 a03e
000000f0: 4675 81be ea39 00be 6cc2 033e 7544 62be
00000100: 7498 2f3e 25f3 92be 515a 063c e928 8bbe
00000110: 781b 7e3e d36a 58bd 8ed4 9c3e c772 4cbe
00000120: 09ca e23d d88b 67bd c623 d2bb 8fa2 f93d
00000130: cdb8 2a3b eabe f1bd ba69 99be e476 bdbd
00000140: d99b a93d ee3c 113e 399a 983e d6b4 6d3c
00000150: aaf2 863e 48d4 02be 9f4e 083d c56b 973d
00000160: 70bd 4a3e b8aa 263e 319b 10bd cf0d 8d3e
00000170: 0aa7 1bbe f500 c3bc fd40 47be 5dff 773e
00000180: 5104 423d c7ce cfbd d92e 40be a060 f6bd
00000190: 02d2 9bbe c197 81bd f132 6fbe 2921 98bd
000001a0: 285a 70bd 1e9e 9cbe 49f7 213e 694d a13d
000001b0: 445f 0f3d ea94 5d3e 5037 863e 9119 88be
000001c0: 562b 573e fc39 dfbd 4c32 9e3e cb26 7bbd
000001d0: a866 a53d b8bc 5cbd a7f7 793e f8b2 58bd
000001e0: dbed 313d 2248 0f3d 4397 393e dc19 1abe
000001f0: db63 84be c67f 68be fca6 53be 54a8 dcbd
00000200: 0ba8 153e 52e7 0cbd dac7 a33e 6e05 6dbe
00000210: 29a8 5c3e b40c e2bd 74bc 7bbe 47ff febd
00000220: ae7a 24be a9d7 f23d e528 5cbe 12a8 9bbe
00000230: fcdd a4be dc3f fa3c b481 1ebe 4ac3 d4bd
00000240: ced0 8abe b554 473e f083 37be 8268 823e
00000250: cf49 923e 8a2e 863e 43ed 933e 9726 8cbe
00000260: b6b0 863d c5ae bc3e 07f8 6dbe 607c 533d
00000270: b411 2b3e b2a0 24bd 87dc 26be 2511 a4bd
00000280: 3824 9b3e d758 343e 9058 933d 6507 d13d
00000290: a2fe 873d fd3e 87be b6c6 96be cc88 d6bd
000002a0: 13a6 8bbd f8b0 293e ce89 36be dd2e c3bd
000002b0: f6df 813e a0a7 42be 81a6 60be c63c 7d3c
000002c0: 5fa4 5fbe efd9 cebc 88d9 5a3c 74ed 9f3e
000002d0: fbb0 133e e050 34be c5e1 c33d 3374 99be
000002e0: b84f 60be 2289 c83c fd6c 693e da30 91bd
000002f0: fa91 c5bd 390d 8c3d 4afd 02be 99ac 563e
00000300: 854f 263d e06d 27be 1a09 9ebe 4718 c13d
00000310: 79cf a4ba eb71 993e c1e2 953e 57fb 60be
00000320: 003e 083c 45a0 2ebe f84c 363d 7b9a 953e
00000330: 20ce 15bd 0090 9b3d d21b 89bd 8aa4 593e
00000340: 40c0 bc3b 58ef 863d 6ad7 693e 002d d6bc
00000350: 01c2 803e 9e89 56be 0c7a 8ebe 93cc 67be
00000360: a0bc e4bc 103b ea3d 82fb 663e 00f6 96bd
00000370: e487 3bbe a01c 27bd 2a32 573e a4ce 86be
00000380: 1f11 843e f9cd 8b3e ad55 07be 1a98 8dbe
00000390: 694b 9dbe d042 69be 02d5 533e 487c 8a3d
000003a0: f8e3 373e 7242 84be af64 8f3e daea 45be
000003b0: 659e 3dbe 80ce ba3c 3878 a53d 4041 69bc
000003c0: 1cff 233e f45e 623e 6245 28be f2ae 95be
000003d0: 20a5 fa3a f26f 6f3e a185 40be b027 bd3d
000003e0: 9f89 913e 2063 5cbe 4cd3 a6ba 32fa c03c
000003f0: 3a6f 433e 4588 3b3d 28bf ce3d 4486 393e
0.2441402 0.07997216 -0.2580003 -0.096659385 0.25808847 -0.22742742 -0.32008764 -0.01976165
0.06365173 0.19163853 -0.28502542 0.009972449 -0.1987265 0.0031839325 -0.3222688 0.24666013
0.005871238 -0.0287112 -0.15082867 -0.17429276 0.0393824 -0.2673087 -0.124855936 0.06870386
-0.32670903 -0.27893057 -0.25455812 0.11258443 -0.2425887 -0.01898111 0.23644279 -0.22628266
0.02211783 -0.265477 -0.29853532 -0.09091933 -0.11020502 -0.22942816 -0.14038004 -0.151542
-0.04990299 -0.07569535 -0.021512052 -0.0950127 0.26326364 -0.0008455898 0.042105403 -0.27716437
-0.24251197 -0.29492778 -0.00979123 -0.024157649 -0.25117186 0.16228142 0.20641394 -0.06970232
0.22333309 0.09546322 -0.090468034 0.31341404 -0.25284785 -0.12522092 0.12867135 -0.22096427
0.17148 -0.2870113 0.008200244 -0.2717965 0.24815166 -0.05283625 0.30630916 -0.19965659
0.110736914 -0.05652985 -0.006412956 0.12189209 0.0026050091 -0.11803992 -0.29963475 -0.09251192
0.08281679 0.14183399 0.29805163 0.014508447 0.26357013 -0.12776291 0.033278104 0.07393602
0.19798827 0.16276062 -0.035304252 0.27549598 -0.15200439 -0.023804167 -0.19458385 0.24218507
0.047367398 -0.101468615 -0.18767871 -0.120301485 -0.3043366 -0.06327773 -0.23359276 -0.074282
-0.05867973 -0.30589384 0.15816988 0.07876093 0.03500296 0.21638837 0.26214075 -0.26582006
0.21012625 -0.108997315 0.30897748 -0.061316293 0.08076221 -0.053890914 0.24410878 -0.052905053
0.043439727 0.0349809 0.18124108 -0.15048927 -0.25857434 -0.22704992 -0.20669168 -0.107742935
0.14614885 -0.03440029 0.31988412 -0.23146603 0.21548523 -0.11037579 -0.24583608 -0.12451034
-0.16062424 0.1185754 -0.21499975 -0.30401665 -0.3220061 0.030548029 -0.15479165 -0.10388811
-0.2711243 0.19465907 -0.17921424 0.25470358 0.28571936 0.2620738 0.28891954 -0.27373192
0.06576674 0.3685209 -0.23239146 0.051632285 0.16705972 -0.040192313 -0.16295062 -0.080110826
0.3030107 0.17612015 0.07194626 0.102064885 0.06640364 -0.26415244 -0.2944848 -0.10475311
-0.068187855 0.16571414 -0.17826006 -0.09530423 0.2536618 -0.19009256 -0.21938516 0.015456384
-0.21840046 -0.025250403 0.013357528 0.3123585 0.14422981 -0.17608976 0.095645465 -0.29971465
-0.2190541 0.024479453 0.22795482 -0.07089396 -0.096469834 0.068384595 -0.12791935 0.20964278
0.04060318 -0.16350508 -0.3086632 0.09428459 -0.0012574039 0.29969725 0.29274562 -0.21970879
0.008315563 -0.17053325 0.044506997 0.29219422 -0.03657353 0.07595825 -0.066947594 0.21254173
0.0057602227 0.0658862 0.2283608 -0.026144505 0.25148013 -0.20950934 -0.2782749 -0.22636633
-0.027921975 0.114370465 0.2255688 -0.073711395 -0.18313557 -0.040798783 0.2101523 -0.2632953
0.25794312 0.27305582 -0.13216276 -0.27655107 -0.30721596 -0.22779393 0.20686725 0.06761986
0.17958057 -0.25831944 0.28006503 -0.1932787 -0.18517454 0.022803545 0.080795705 -0.014236748
0.16015285 0.22106534 -0.16432717 -0.29235035 0.0019122697 0.23382547 -0.18800975 0.092360854
0.2842531 -0.21522188 -0.0012727766 0.023556802 0.19085398 0.045784254 0.10095054 0.18117625

gru.weight_hh_l0 f4 [30, 10]
00000000: 3675 91be 540c 8dbe 6651 aabd 8474 eabd
00000010: 08b0 8a3e 9830 d03d d855 42bd d5b0 a63e
00000020: 9602 52bd d1e9 5c3e 4f53 8fbe 6675 8d3e
00000030: a544 4d3e 0006 403e 637a 673b 236d 553e
00000040: 6a60 463d bfad 66be 255a 843e 38b5 b63d
00000050: 95b2 9ebe ef88 0ebd e6a2 bebe 3b76 bc3d
00000060: f151 42be c5d9 5a3e c0dd 38bd 394e 393e
00000070: c0ec e6bd 8bdc c53d dc17 74be 9233 4e3d
00000080: c6c9 e0bc 2540 d33e 841b 60bd 6f05 803c
00000090: 90cb f2bb dddf 3fbc ca9e 553e 662f ebbd
000000a0: 3bfe cdbd 0652 7f3e 1e5f a53e fbfb dabd
000000b0: ab97 77be 77cd f23b 9274 74bc 6131 f2ba
000000c0: 263e 88be 0dfd 863e 3b73 0a3e f61e 29be
000000d0: 43bb 2d3e dc79 7d3e c0b9 8bbd fe00 e73d
000000e0: 6c61 56be 9ee1 1f3e 8bef eabd 0b5a 2bbd
000000f0: 1e4f 7ebe 2167 23bb e57b 3fbe 258d a4be
00000100: 8578 74bc e15c 5b3d e152 37be ae2b 62be
00000110: 9c42 933e bab0 893e 3115 203c b833 8a3e
00000120: a698 073e 665b 863c 7e02 f43d d808 e63d
00000130: 9dea 6c3e 9f18 0d3e 18d9 d4bd d0de 9bbe
00000140: ea3a 813e 55aa 8f3e c31b 10be 6751 a03e
00000150: d899 923e f9fe 003e aaee a8be 17d4 953e
00000160: f350 91be 791e 8f3d ec50 9cbe 30bf e93d
00000170: 826d c8be 3dc0 89be 09d2 843e 1529 583e
00000180: 63fb 793e eda1 673e c594 2fbe 41a1 b83e
00000190: 7b2a a4be 2f8e 1ebb 3caa d23d 253a 82be
000001a0: 2424 003d 328d 11be 19a8 34be d457 02be
000001b0: e7ed 8a3e 76f2 e23c b1cd 233e 8ced 1ebe
000001c0: bb1a 94bd 00d9 ff3c 2253 9d3e f0af 1a3d
000001d0: 75ea 93be 8ba4 733e ed2d 43be 1edb a73e
000001e0: 429b b03e bf8b 86bd 9ec6 053e 869f a63e
000001f0: b0bb 04bd 8668 9a3e cb8a f8bd 018a 753d
00000200: 41cf c5be 68aa a23e 169d 8e3e 04ba b33e
00000210: ef1d 613d a89b 4dbe 7631 ebbd 1cf5 19be
00000220: 9872 143e a105 393c e8f0 503e ece2 90bb
00000230: 57d9 8c3e 21ab bb3d a6f0 903d d865 543e
00000240: f290 7bbe a70a aa3d b080 f93d 056c c9be
00000250: 2cd6 953e f2bb 2cbd bba9 9cbd 428f 923d
00000260: 3e71 49bd df03 97bd 069c ba3c 440f 7dbd
00000270: 41bc c23e 9003 673e 8343 17be 81e2 9a3e
00000280: d04e ffbd 3bf3 cebc a01a 923d aac7 603e
00000290: eb62 d03d 8708 743e b74f c13e 6c8d bdbe
000002a0: e84b 043e d658 dd3c 1a33 1c3e df8d 603e
000002b0: 7c7b 7dbe 2cf0 48be 2e1b 13be 0562 843e
000002c0: 0627 5c3e 5f64 053d 98aa 83bd e1db 503e
000002d0: d033 47be a5f0 2e3e 90cf 7b3e cce9 99bd
000002e0: e979 663e 8f4e 84be 8923 adbd 8a1f 073c
000002f0: 2e9b acbd bdb9 a43c a202 593e 4274 e13b
00000300: cea8 08be 4f02 b4bd a3cb 58be 2298 2ebe
00000310: 7875 b33e f717 87bd 2fe1 1d3e 17aa 2f3e
00000320: 1646 153d c10d 003e f2cf bf3e 4a93 39be
00000330: 6956 abbd 4589 3abe 6165 09be d326 b6bd
00000340: 5740 8a3e 4df8 213e 6c6f 87be 8497 383e
00000350: 8323 8ebe c8fd f83c 4402 6fbe 0432 613e
00000360: b71e 1b3e 938f 553e 6af2 8abe dfbf 43be
00000370: 91a5 773e f5f0 e8bd 851a 48be 4ecf 1fbe
00000380: 791f 283e c761 80be 8eb3 60bc 522a 443e
00000390: 2fd4 7b3e fa19 42be e2c3 20be b61d c2be
000003a0: cb2a 20be caac 84bd 883d 99bd 3706 10be
000003b0: 0a54 9abd 6cdd 4a3e 825e 56be 2a5b 85be
000003c0: 4adc 33be ea4a 15be aca2 2e3e 5050 8d3e
000003d0: 3867 3ebe 4594 963e 487c 733e 64a2 5ebe
000003e0: 0583 1f3e 6e30 b6bd a00a f7bd b5cc e33d
000003f0: 94f6 553e 6ae1 80be 19de 43bd c322 46be
-0.28409737 -0.27548468 -0.08316307 -0.11448005 0.27087426 0.101655185 -0.04744515 0.32556787
-0.051271997 0.21573569 -0.27993247 0.2762863 0.20045717 0.18752289 0.003532075 0.20842414
0.04843179 -0.22527216 0.25850025 0.089212835 -0.30995622 -0.03479856 -0.37233657 0.09202238
-0.1897657 0.21372135 -0.045133352 0.18096246 -0.11275625 0.09661206 -0.23837227 0.05034215
-0.027439963 0.41259876 -0.05471374 0.015627591 -0.0074095204 -0.011711088 0.20861354 -0.1148365
-0.10058256 0.24933633 0.3229913 -0.10692593 -0.2417895 0.007409747 -0.014920371 -0.0018477851
-0.26609915 0.26364937 0.1352052 -0.16515717 0.16965966 0.24753517 -0.068225384 0.11279486
-0.20935601 0.1561341 -0.114714704 -0.04183392 -0.24834868 -0.0024933296 -0.18699606 -0.32138935
-0.014921312 0.053555373 -0.1790271 -0.22086975 0.28761756 0.26892644 0.009770677 0.26992583
0.13241825 0.016401004 0.11914538 0.112321556 0.23136373 0.13778923 -0.1039297 -0.3044343
0.2524026 0.2805964 -0.1407309 0.31312105 0.28632998 0.12597264 -0.32994586 0.29263374
-0.28382072 0.06988234 -0.30530488 0.11413419 -0.39146048 -0.2690448 0.25941494 0.21109422
0.24412303 0.22620364 -0.17146595 0.36060527 -0.3206366 -0.0024193635 0.10286376 -0.25434986
0.031284466 -0.14214018 -0.17642249 -0.12728816 0.2713463 0.027703505 0.15996434 -0.15520304
-0.07231661 0.031231403 0.30727488 0.037765443 -0.28889814 0.23793237 -0.19060488 0.3278436
0.34493452 -0.06569623 0.13064048 0.32543582 -0.032405555 0.3015787 -0.12135848 0.059946064
-0.38634685 0.31770635 0.27854222 0.35102856 0.054960188 -0.2007891 -0.11484043 -0.15034908
0.14496839 0.011292846 0.20404398 -0.0044215824 0.27509567 0.091634996 0.0707715 0.20741975
-0.24567011 0.08302813 0.12182748 -0.39340225 0.29264963 -0.042171426 -0.07649561 0.071562305
-0.04918026 -0.07373785 0.022779476 -0.061782137 0.3803425 0.22559953 -0.14771847 0.30250934
-0.12466204 -0.025262466 0.071339846 0.21951166 0.10175117 0.23831378 0.3775613 -0.3702196
0.12919581 0.0270199 0.15253869 0.2192912 -0.24754137 -0.19622868 -0.14365837 0.25856033
0.21499261 0.032566424 -0.064290226 0.20396377 -0.19453359 0.17083986 0.24590898 -0.07515296
0.22507443 -0.25841185 -0.084540434 0.008247266 -0.08428036 0.020108098 0.2119241 0.006880314
-0.13345644 -0.08789503 -0.21171431 -0.17050222 0.3505056 -0.06596368 0.15417932 0.17154728
0.036443792 0.12505247 0.37463337 -0.18122593 -0.08366091 -0.18216427 -0.13417579 -0.08894124
0.27002212 0.15817375 -0.26452196 0.18026549 -0.27761468 0.03039445 -0.23340708 0.21991736
0.15148436 0.2085555 -0.27138072 -0.19116162 0.24184252 -0.11374084 -0.19541366 -0.15606424
0.16418256 -0.25074598 -0.013714684 0.19156769 0.2459266 -0.18955222 -0.15699723 -0.37913293
-0.15641324 -0.064782694 -0.07482439 -0.14064871 -0.075355604 0.19811028 -0.2093449 -0.26046115
-0.17564502 -0.14579359 0.17054242 0.27600336 -0.18594062 0.29409996 0.23777878 -0.21741635
0.15577324 -0.08895956 -0.120625734 0.11123029 0.20894843 -0.25171977 -0.04781923 -0.19349198

gru.bias_ih_l0 f4 [30]
00000000: 6f73 5f3e cdbd 37be af73 a2bd ce9e 0fbe
00000010: 1fe2 89bd afdc afbe 3299 3cbd 39b3 05be
00000020: bf47 a13c 6b8f 4fbe 8db3 b03e 52a0 6dbe
00000030: 2d5f 9fbe c7ab 753e 3ec9 273e 58c9 87be
00000040: 5e75 9fbe d6d4 90bc 07af 423e 6b5b 72bd
00000050: 2f66 56be 4fd4 90be 62c6 cebe 358b d9bd
00000060: 2d80 683e 068b 6f3e 5e18 c63e f7be 4abe
00000070: f801 4cbd d3e2 af3d
0.21821378 -0.17943497 -0.07932221 -0.14025423 -0.06732582 -0.34348056 -0.046044536 -0.1305665
0.019687532 -0.20269553 0.34511986 -0.23205689 -0.311273 0.23991309 0.16385362 -0.265208
-0.31144232 -0.017679613 0.1901208 -0.059169214 -0.20937417 -0.2828698 -0.4038573 -0.10622255
0.22705145 0.23392877 0.38690466 -0.1979941 -0.049806565 0.08588185

gru.bias_hh_l0 f4 [30]
00000000: 826e 2bbe f9ef 5cbe e63d 3cbe d0e4 333e
00000010: e5ed cc3d a31e 11be 896d 7c3d 5b5f 91be
00000020: 29f9 bbbc c67c 8cbe fbe0 e6bd db32 08be
00000030: 1a10 843e 9fce 8bbd 65b3 eebd b22d 0f3d
00000040: 45a8 f4be d49d 9f3e 1f6a 90be 58b5 a2bc
00000050: 2ea4 7d3d 1d70 263c 17f3 89be 4e9b d13d
00000060: 60ec 633e 62bb de3d 17ff 9d3d 1329 f83c
00000070: eeca 903e 4774 c23e
-0.16741374 -0.21575917 -0.18382987 0.17567754 0.10006312 -0.14171843 0.0616279 -0.28393063
-0.022945957 -0.27438945 -0.1127338 -0.1330065 0.25793535 -0.06826519 -0.116553105 0.034955688
-0.4778463 0.311751 -0.28205964 -0.019861862 0.061924152 0.010158566 -0.26943275 0.102347
0.22258139 0.10875584 0.0771467 0.030293023 0.28279823 0.37979338

gru.weight_ih_l0_reverse f4 [30, 40]
00000000: 4377 803e 51a8 033e bbc7 22be 7f98 0f3d
00000010: 15b4 4c3e 102a 1fbe 7cd6 b4bd 41a7 5bbe
00000020: 65c6 e1bd 98d6 1dbe 908f f93c 647d 00be
00000030: 3049 37be 3cdf 513d dd76 7abe e1cb 663e
00000040: 9047 a93e 0b55 c93d 8ebe 68be 5ff7 5e3e
00000050: 52b7 95be 9b36 41be 0909 44be 164a adbd
00000060: 060b 863e 7ae7 9d3e dcf7 673d 87c3 51be
00000070: 298c 503d f2bb 2f3e 2530 bf3d f23a 073e
00000080: 26fe 8fbe 055b 96be 323c b83d b66d 90bd
00000090: 0b41 58be 776d 3cbe 0ba5 433e 8ba4 8c3d
000000a0: de49 60be 1fa0 583e ac8b 063e aba0 8b3e
000000b0: 5d21 0cbe a029 85be 0a80 54be 5d50 45be
000000c0: bf66 753e 7184 8e3e 2de4 8f3e a18a ef3c
000000d0: fb77 4c3d 0644 04be 8768 2f3e 176b 713e
000000e0: 30ee 9dbe 6b31 f9bd a1b8 49be becb 02be
000000f0: c05e 413e 3991 81bd 72a8 bebd 8dc7 dfbd
00000100: 73e6 9e3b 6f90 993d e430 38be 14e1 75bd
00000110: f1d3 6ebe 8cd7 57bd e6a3 943e 4689 95bc
00000120: 535e 703e ff83 65be dfd0 8b3e 86b9 9f3c
00000130: 7b0b 06bd fd99 4a3e c601 14be e940 07be
00000140: 4337 9f3e 3b17 8ebe f843 703d 2c7d e13d
00000150: a849 65be ed8a 9c3e 2a7e 7c3e f271 7c3e
00000160: f5de 983e b562 903e d861 73bd bfc9 06be
00000170: 2178 823e 98d9 09be 60e5 bc3c 5cf0 9cbd
00000180: 1242 b7bd 8b91 9e3e 5032 0b3e a395 933e
00000190: f0c5 873d f519 02be 8657 82be 85a7 813e
000001a0: b412 94be 9899 47be 451f 35be 561a 563e
000001b0: 1e1e 423e fc68 97be 70b4 773d d4f6 a43d
000001c0: 00bf 803d 7080 25bd 1a40 473e a00a 75bd
000001d0: dde2 66be 82c1 4e3e 96cf 98be 6c54 34be
000001e0: 3c66 a3bd 230c 91be a9d5 ab3d 620f 8fbe
000001f0: e277 343e 1b7c 283e bcb5 cdba d246 1b3e
00000200: 8eb9 3abe e9ca 903d 91c4 51bb 624e 4a3e
00000210: c1c5 ab3d 04a4 8bbd 9568 2fbe 3f55 59be
00000220: 5a34 9f3e 68fd 933c 39d0 6b3d 1755 483d
00000230: b11b 8f3e 8c18 353e 3e51 6b3e b84b d5bc
00000240: dd78 583e b0be 7d3d 2042 dd3d 7320 c13d
00000250: 7c91 a0be 2829 703e e9db 9b3e 737b 3c3e
00000260: 8651 863d fcca 6bbe 281e eb3c 39ea 8ebd
00000270: ae09 85be e92e 83be 10c3 103d cd0d 3f3d
00000280: 1133 6ebe dea2 113c ce6a 2e3e 15e4 143e
00000290: d051 c1be 4c1a bf3d 648e dbbd 1986 a9be
000002a0: f1c5 813e 25e8 51be e063 513e bff0 143e
000002b0: 1d04 723e 1481 0ebd f13a 0d3e a747 1abe
000002c0: 41d7 86be 6f4e bd3e bfb5 a03e 3f11 22be
000002d0: d1b6 2dbe ea56 123e 3fa3 39bd 259c 193e
000002e0: 4afe 283d 453f a53e ac74 6dbe 05b0 00be
000002f0: d9a1 a8bd 06b6 80be 7d26 b6bd d618 f53c
00000300: 4d79 5d3e 0b21 f83a 9dd5 cabd 89e2 123e
00000310: d9d8 94bd 53f6 c53d 5f71 643d cdaa 9abe
00000320: ddac 99be 9ef1 1ebe 8a10 1c3e ee83 67be
00000330: 3d43 7fbd 725b 57be da17 0dbe 92a3 6cbc
00000340: 213c 09be ffbb 9d3d 08c9 14be 40cb 883e
00000350: 362c 533e 7c33 98be a096 b5bd 0edf 4bbe
00000360: 9c81 01be a5f0 b33d ab13 b8bd 30c7 213e
00000370: a0b1 47be 0188 443e 0c4c 433e 5aba 6dbe
00000380: 5761 ad3e d6ed 16be 9d17 673e eee5 26be
00000390: c7cc 1fbe 54b7 a7be c019 a53e 4ab3 bf3d
000003a0: d961 82be 73e3 143e 6686 ba3d 803b 4b3e
000003b0: f49f 6cbe 2a81 123d f968 f7bd 5325 923e
000003c0: 8577 9b3e 73bf 773e 2be8 963e 090a 0bbe
000003d0: 993e 203e 008d 9d3e 5892 93be 5fca 0d3e
000003e0: 98bf 85be 3943 f7bd 9543 c53c 6688 7fbe
000003f0: 4a31 74be 12e4 9a3c 480c 15be 8abd 923e
0.2509099 0.12857176 -0.15896504 0.03505754 0.19990571 -0.1554339 -0.08829972 -0.21450521
-0.11024169 -0.15413892 0.030463964 -0.12547833 -0.17899013 0.051238284 -0.24459405 0.22538711
0.3306241 0.09830674 -0.22728941 0.21774052 -0.29241425 -0.18868487 -0.19144072 -0.084613964
0.26180285 0.30840665 0.05663286 -0.20484744 0.050914917 0.17161539 0.09335355 0.1320608
-0.28123587 -0.29366317 0.08995856 -0.07052176 -0.21118562 -0.18401133 0.19105928 0.068673216
-0.21903178 0.21154831 0.13139218 0.27271017 -0.13684602 -0.2600832 -0.20751968 -0.19268937
0.23964976 0.2783542 0.28103772 0.029240908 0.04991911 -0.12916574 0.17129718 0.23576008
-0.30845785 -0.12167629 -0.19699337 -0.12773034 0.188838 -0.06326527 -0.09309472 -0.10926733
0.004849249 0.07498252 -0.179874 -0.060029104 -0.23323037 -0.052695796 0.29031295 -0.018253934
0.23473482 -0.22413634 0.27307793 0.019497644 -0.032725792 0.19785304 -0.14453802 -0.13208355
0.3109685 -0.27752098 0.05865857 0.11010203 -0.22391379 0.30574742 0.24657503 0.24652842
0.29857603 0.28200307 -0.059419483 -0.13162898 0.25482276 -0.13461912 0.023058593 -0.076630324
-0.08948149 0.30970415 0.13593411 0.288251 0.066295505 -0.12705214 -0.254574 0.2532312
-0.2892052 -0.19492185 -0.1768771 0.20908484 0.18956801 -0.29572284 0.060474813 0.08054891
0.0628643 -0.04040569 0.19458047 -0.059824586 -0.22547479 0.20191005 -0.29845876 -0.1761033
-0.07978484 -0.28329572 0.08390362 -0.27941424 0.17623857 0.16453592 -0.001569442 0.15163735
-0.18234846 0.07069952 -0.0032008032 0.19756463 0.08387328 -0.06818393 -0.17129739 -0.21223925
0.3109463 0.01806517 0.057571623 0.048909273 0.27950814 0.17685145 0.2298021 -0.026037082
0.21139856 0.061949432 0.10803628 0.09430017 -0.31360996 0.234532 0.30441216 0.18406467
0.06558518 -0.23026651 0.028700903 -0.06978268 -0.25983948 -0.25621727 0.035342276 0.04664402
-0.23261668 0.008888928 0.1703293 0.14540131 -0.3775773 0.093311876 -0.10720518 -0.3311012
0.2534633 -0.20498712 0.20448256 0.14544962 0.23634382 -0.034791067 0.13792016 -0.15066396
-0.263361 0.36973903 0.3138866 -0.15826891 -0.1696427 0.14290968 -0.0453217 0.1500097
0.041258134 0.32274833 -0.23189038 -0.12567146 -0.08233995 -0.25138873 -0.0889406 0.02991907
0.21628304 0.0018930746 -0.09904025 0.14344229 -0.07267923 0.09666123 0.05577218 -0.30208436
-0.30014697 -0.15521857 0.15240684 -0.22608921 -0.062319983 -0.21030977 -0.1377863 -0.014443295
-0.13401844 0.07701873 -0.14529812 0.26717567 0.20622334 -0.2972678 -0.0886662 -0.19909307
-0.12647098 0.08786134 -0.08988126 0.1579864 -0.19501352 0.19192506 0.19071978 -0.23215619
0.33863327 -0.14739165 0.22567602 -0.16298649 -0.1560546 -0.32757056 0.32246208 0.093603685
-0.25465277 0.1453989 0.09107666 0.19846916 -0.23107892 0.03576771 -0.12080569 0.285441
0.30364624 0.24194126 0.29474005 -0.13578047 0.15648879 0.30771637 -0.2882259 0.1384673
-0.26122737 -0.120733686 0.024080077 -0.24954376 -0.23846927 0.01890758 -0.14555466 0.28660232

gru.weight_hh_l0_reverse f4 [30, 10]
00000000: 3337 59bd 94f0 2cbd a314 a63e 2e24 183e
00000010: f60a da3d 3c31 033d 508f a7be 5b24 f3bc
00000020: 5805 1c3e 8493 0a3e b0d2 16bf bdc4 65be
00000030: 213a bf3c 86b5 f3be 8ee3 0a3f 0714 3b3c
00000040: f029 653e 9512 133f 82e6 e33e 2c2e 9d3e
00000050: 3df6 453e 14e2 cc3e 3f51 0c3e 9f49 2b3e
00000060: 13a3 873e 4329 a13d 0391 043d 1c05 87be
00000070: 110c 9b3c 1279 b4be b0b9 373e 29db 943e
00000080: dd25 9a3e 6f4a e53e 0d53 4bbe cd5d bdbe
00000090: c792 b4be 8eb3 873c ae73 2ebe 580f d5be
000000a0: 0028 88bc f153 0dbd 5f79 df3e 6915 753e
000000b0: a192 2bbe 4bab ba3d 99bd d3be c1f5 fabe
000000c0: e7f4 85be 25a3 f0be 4e99 36be 39bc bf3e
000000d0: 7c53 043e 7909 9abd 9499 2d3e fff2 ca3e
000000e0: f570 f53d b9d1 943e 2d8d d7bd 72e3 4c3d
000000f0: e082 3a3d a1a3 193e 9574 f63d 3eff b9bd
00000100: 8aaa c13e 1b54 193e b59b a23e c6f4 8c3e
00000110: 73ff 983e 932b ce3e d6a3 49bd 5139 e23e
00000120: 89ea a53e c3b8 a03d 1731 f6bd 4d32 86be
00000130: a8f6 83be b72a d6be 9b4c a7be 8eef 523d
00000140: 514f 92be d086 893e 1efc fdbd 4338 77be
00000150: 56a3 a53e 7355 31bd d087 c33d 1417 c53e
00000160: da23 16be 9134 373e d46c 4ebe cfbe 9f3e
00000170: 7ec3 8ebd 80cb 47be 3049 36bd 1939 b3bd
00000180: 203f 6bbe bb29 4d3e 103e 2bbc 74f7 dd3c
00000190: 1344 5f3d 1a7a 8aba f41e 503d d089 263e
000001a0: d1b1 093e 5856 91be 6da2 80be 97ec c5bd
000001b0: 9811 303e 886f 81bd 42a3 523e 33eb 82be
000001c0: 581c 5cbe 2ffa 84be d808 8a3e fae0 ebbd
000001d0: 3c6a 3dbe 5e11 4a3d 334f a13d f439 31be
000001e0: ec95 983e 1ddd 54bc 8c8c 493e 279e 1ebe
000001f0: f182 843e b00b c83b 0f0a 6f3e 9d77 35be
00000200: 2c50 e7bd cc6f 9c3e 6ee3 853d 2fb8 c13d
00000210: bbcc 33be 08f3 9c3e f2f8 803e 0d9d fa3d
00000220: f1c2 463e a246 673e 6655 64bd 2a98 153e
00000230: f57e fb3d e444 b63e b085 103e e66d 493d
00000240: 9e1f c83e 5106 4a3d 259d 9bbe 6ffc a4bc
00000250: aaf1 a33e 1bef 9fbb e200 63be 880d 6f3e
00000260: 86f6 143e b22f 033e 34d7 a3be a694 c63e
00000270: 1aef 883d d702 6bbe f87e e03d ab91 62be
00000280: 4718 78be ac19 d4bc ec88 31be 7609 b73e
00000290: 778a 58be 00d8 c8bd 1071 c13d 1f5a bc38
000002a0: 1c50 d03e 280b 1a3f 3cfb 453e 0a67 583d
000002b0: 4026 c1bd 3895 1c3d 52a5 a7bd a4cb cb3d
000002c0: 648a 683e 26e5 97be f07c e8bd 6228 453e
000002d0: fa89 803e 56e8 693c 6d3d 4f3e d45d b73d
000002e0: cd37 8cbe 6aa0 36be 87f0 e03e c6f0 c53d
000002f0: 6467 b0bd db1d d5bd 4652 153e f7ef fe3c
00000300: e350 0dbe 5e8f 0dbd d794 22be 3613 4abe
00000310: 00b0 0cbe 8e01 e6bd 7fd7 843c 9f4a 1d3d
00000320: 0a04 18be 891b 8fbe 0911 8cbd 1f56 5b3e
00000330: 7254 96bd 1831 94bd 67da e0be c8fc e23d
00000340: 91ec 2c3e 3c02 7bbe 02e5 5639 8fdd b3be
00000350: 5259 d63d c765 53be fa7e d03d d396 f6bd
00000360: 5a3f 293e 4b94 c8bd 2759 513e cf36 d93d
00000370: 4a58 21bd a1f4 6c3e a22e 88be 2b0f 763e
00000380: db35 0abe 48bb 3f3d 186b 6d3e 4459 693d
00000390: f298 d03d 3d5f 0e3e beb4 bb3c 083c 3ebe
000003a0: 208c 9f3e 35a8 bd3e b961 a8bc 6fa9 d9be
000003b0: 3e54 32bd 230d b5be 906b c73d b716 bcbe
000003c0: 23f8 5f3d 3134 513e 36fb c3be 0e85 91be
000003d0: 0191 ee3e 30e4 213d f03d 37be 1804 c83e
000003e0: 891e cc3d 2b31 1c3e db09 ebbd 3ef7 9ebe
000003f0: 4fc2 56be 18e7 0e3e 4572 5a3e b141 9f3d
-0.053031158 -0.04222162 0.3243762 0.14857551 0.10646622 0.032029375 -0.32726526 -0.029680422
0.15236413 0.13532835 -0.58915234 -0.22438331 0.023343148 -0.4759943 0.5425347 0.011418349
0.22379279 0.5745023 0.445118 0.3069929 0.19332214 0.40016234 0.13702868 0.16727303
0.26491603 0.07869198 0.032364856 -0.26371086 0.018926652 -0.3524862 0.17941928 0.29073456
0.30107012 0.4478335 -0.198559 -0.36985627 -0.35268232 0.01656511 -0.17036316 -0.4161327
-0.016620636 -0.03450388 0.43647286 0.23933949 -0.16755153 0.09114703 -0.4135559 -0.4901562
-0.26163408 -0.4699947 -0.17831919 0.3744829 0.12922472 -0.07521338 0.16953117 0.39638516
0.119844355 0.29066256 -0.10524974 0.050021596 0.04553497 0.15003826 0.12033955 -0.09081887
0.37825423 0.1497349 0.3175942 0.27530497 0.29882392 0.4026762 -0.04922851 0.44184354
0.324055 0.078477405 -0.12021082 -0.2621025 -0.2577412 -0.41829464 -0.32675633 0.05149799
-0.2857614 0.26860666 -0.12401603 -0.24142556 0.32351178 -0.04329438 0.095473886 0.3849417
-0.14662114 0.17891146 -0.20158702 0.31200263 -0.06970881 -0.19511223 -0.04450339 -0.08751125
-0.22973299 0.2003545 -0.010451809 0.027095534 0.05450828 -0.0010564954 0.05081077 0.16263509
0.13446738 -0.28386188 -0.2512392 -0.096642666 0.17194211 -0.06320101 0.2057009 -0.25570068
-0.21495187 -0.25972125 0.26959872 -0.1151752 -0.18497556 0.04933297 0.07876434 -0.17307264
0.2980188 -0.012992171 0.1968252 -0.15490018 0.2588115 0.006104909 0.23343681 -0.1772141
-0.112945884 0.30554044 0.065375194 0.09458958 -0.17558567 0.30654168 0.2518993 0.12236986
0.19410302 0.22585538 -0.055745505 0.14608827 0.122800745 0.35599434 0.14113498 0.049177073
0.39086622 0.04932243 -0.3039333 -0.020139901 0.32020313 -0.0048807985 -0.22168306 0.23345006
0.14547166 0.12811163 -0.32000124 0.38785285 0.0668623 -0.22950302 0.10961717 -0.2212588
-0.24228011 -0.025891148 -0.17337388 0.35749406 -0.2114657 -0.09806824 0.09445393 8.981325e-05
0.4068612 0.60173273 0.1933412 0.05283264 -0.09431124 0.038228244 -0.08185829 0.09950951
0.22709042 -0.29667014 -0.11351955 0.19253686 0.25105268 0.014276585 0.20238276 0.08953443
-0.27386323 -0.1783463 0.43933508 0.096650645 -0.0861347 -0.10406085 0.14582166 0.031120284
-0.13800387 -0.034560554 -0.1587709 -0.19733891 -0.13739014 -0.11230765 0.016216038 0.038401242
-0.14845291 -0.27950695 -0.06839187 0.21419571 -0.073403254 -0.072359264 -0.43916628 0.110833704
0.16887118 -0.24512571 0.00020493942 -0.35129973 0.10466255 -0.20644294 0.10180469 -0.12040486
0.16528073 -0.0979391 0.20444165 0.10606157 -0.03939084 0.23140194 -0.26598078 0.24029224
-0.13497107 0.046809465 0.23185384 0.056969896 0.10185422 0.13903518 0.022913333 -0.18577588
0.31161594 0.37042394 -0.02055441 -0.4251208 -0.04353737 -0.35361585 0.09737313 -0.3673608
0.05468 0.20430066 -0.38277596 -0.28421825 0.46595004 0.039524257 -0.17894721 0.39065623
0.099667616 0.15253131 -0.11476489 -0.31048006 -0.2097256 0.13955343 0.21332653 0.077762015

gru.bias_ih_l0_reverse f4 [30]
00000000: a1bb 39be be46 d3be a52c a03d cad8 9b3e
00000010: ac15 d1bd fb05 bebe d2f1 59be d9db 50be
00000020: 3e43 8bbd 4076 27be d7bf 26be ca40 17bd
00000030: e5ee 413e b377 b8be fc13 b4bc 3f34 523e
00000040: 17fc 88be a653 e83c f4d5 f03d 0883 a9be
00000050: 043f d13e 699b d9bd 49b4 653e a8c8 b23e
00000060: dfc4 70be 1732 3cbe 703b febd a2e5 863d
00000070: 6277 b8be c7ce 40bb
-0.18137981 -0.4126491 0.07821015 0.30438834 -0.10209212 -0.37113938 -0.21283653 -0.20396365
-0.06799935 -0.16353703 -0.16284119 -0.036927022 0.18938787 -0.36028823 -0.021982186 0.20527743
-0.2675483 0.0283602 0.11759558 -0.3310778 0.4086839 -0.10625345 0.22432055 0.34918714
-0.235126 -0.18378483 -0.124136806 0.06586768 -0.36028582 -0.0029420124

gru.bias_hh_l0_reverse f4 [30]
00000000: 4f68 943d f264 bebe ce1b 503e f3e0 b93d
00000010: c262 a83e bc75 fd3d 2758 11be e1df 983e
00000020: 56ea 53be 9fe1 ecbd 7242 38be 0e06 44be
00000030: 20f8 a1be 0b97 c3bc dcff 50be ad0a 123e
00000040: 0b1d 16bc d6fe 83be be6c bdbd 2673 573e
00000050: 6e8b c23e 1853 133e 58cd 0a3e fd6e 143e
00000060: f564 98be aa0a 93bd 775e f2bd 12f8 ccbe
00000070: 02a4 933c 7b6d 613c
0.07246458 -0.3718639 0.20323107 0.09076109 0.32887846 0.12375972 -0.14193784 0.29858306
-0.20694861 -0.11566471 -0.17994097 -0.19142935 -0.31634617 -0.023875734 -0.20410103 0.14261885
-0.009162198 -0.25780362 -0.092492566 0.2104002 0.37997 0.14387167 0.13554895 0.14495464
-0.29764524 -0.071797684 -0.11834424 -0.40033013 0.018022541 0.013759012

gru.weight_ih_l1 f4 [30, 20]
00000000: 2ac0 453e c7e2 8a3e 8a9b afbd d384 9d3e
00000010: db94 083e 4cb7 063e 5d2e b1be f9a7 2a3e
00000020: 89c6 8ebe c1ee 03be dc90 e5be f574 e1bc
00000030: 963d 423e ee73 64be 0209 46bf a5b9 afbd
00000040: f8b6 5dbf c510 1c3e 098b fdbe ba45 88be
00000050: 68b6 4fbd c0f8 313e 04a3 d7bc ff79 82be
00000060: aecc 243e d650 3dbe ce4f 413e 54d2 a3bc
00000070: 68b1 243e d026 1fbe 360e a6be 04fa df3d
00000080: 6da9 2fbe f16d efbd 5c95 34bf 795b a63e
00000090: 6298 3bbf 04dc cfbd 090b dc3d 9d80 acbd
000000a0: 0403 253e 4244 ae3d 9e38 7cbe d044 6cbd
000000b0: 01e3 3bbd c8ee 153e 44fa 12bd e06a a73e
000000c0: 5ce4 bc3d 175d 9b3e 9ebf d4be cb3b c13e
000000d0: 76e3 e73c 21f8 523e 8df3 84bf d3b9 b23e
000000e0: e0b6 1bbf 92a7 47bc 49c8 03bd 2494 adbe
000000f0: 1228 0fbe a8cc 603e 74dc 1dbd 60d3 c13d
00000100: bf79 83be f9b6 fabc a273 bfbd f620 44bd
00000110: df13 433e d1fe 163e ec75 c1bd e981 96be
00000120: 3e39 a8bd c961 fa3d 9665 723e 87f8 093d
00000130: 020e fd3e cc15 8fbe ee27 343e 3574 f33e
00000140: fcd7 033e a271 3e3e ff2b c03e 6269 6d3e
00000150: ffc8 773e e968 2d3e d918 9e3e 4bd2 89be
00000160: 9ec2 003d abcc 4bbc 0aa9 a13e abbf 36be
00000170: 5da5 143e 0000 9c3e 6976 0f3f e977 883e
00000180: b11a ed3e a521 8fbd 6fd6 16be cccb 813e
00000190: 3479 bf3d 9774 203d 8c7c a1be aed1 143e
000001a0: 111f 873e 28be 1cbe a83b fe3c 1e84 0cbc
000001b0: ef2a de3c 8e0d b23e d592 8abe 6354 cf3d
000001c0: 6177 643d fa16 ed3d f44d 323d d045 6a3e
000001d0: c5ff 07bf abb9 99bd 01d5 343e 580a 313f
000001e0: 9423 6dbe 0d80 283e e29c 5b3d 0015 26be
000001f0: 1d68 28bc 9bd0 543e ef0c 38be 9b6e 74be
00000200: ea1b 11bd 762d 073d 6636 e53d a352 7abe
00000210: 80b6 91be 557a 773e 0c8c 99be c82a 3fbe
00000220: 90d0 2dbf a9a0 773e bf38 0ebf bd6d 88bf
00000230: 9139 8f3e ff61 ba3e 6c98 663e b0c9 2c3d
00000240: db86 0dbe 3be8 40bd bb3e 233e 8f98 ed3d
00000250: 5ac2 4ebe 3326 6c3e 8601 87bc 4c1b b43e
00000260: 8c5e 953d e6a1 0cbd 1a59 13bf 6b26 36be
00000270: da32 3abe 218d 27be ea2e 033f 5c22 153e
00000280: 1eba 89be 16b5 713e c89c 583e faeb 4c3e
00000290: 7758 1e3e bca7 0b3e aeb4 1bbe 9ec9 a13e
000002a0: a398 8dbc 4cf5 af3e fe84 c43e 5f7c 7a3e
000002b0: 348c 153e d113 483d b28a d3bc 3d49 1e3e
000002c0: 5e3a 123f c995 9e3c 402b 363f d5bb 803f
000002d0: 0022 1bbc 1df9 a6bd 4d53 86bd 9056 763d
000002e0: e6e9 e53b 87a1 05bd f117 88bd c0c0 cc3e
000002f0: f60c 0bbc c269 0abe bea8 dcbe df62 37bd
00000300: 89b8 52be 0789 94be 5e10 16bf 30b6 b63d
00000310: d96a 9cbe f3bc 88bd 3893 ffbe ee69 2fbd
00000320: 7802 ab3d f081 463e 680e 5f3e 5b71 813e
00000330: c131 71be a91b 413e 1f0e 363e ab72 d5be
00000340: cb26 9a3e 0826 ac3e f1f4 30be c94b 9abe
00000350: 078b 043f cc40 9b3e 37b9 f83b 1949 20bf
00000360: 9526 d03d 66f8 d4be e7aa 413e 3f8e 173e
00000370: cf7c 07be c3e8 4dbd 97de 42be 2870 313d
00000380: c8fa 85be e5b7 8e3d b47e a13e 06d6 713d
00000390: ddd0 e83e 1525 c73e 2e69 f6be 9a5a 86be
000003a0: 857e a73e cffc 853e 6e43 b5be 5b09 00bf
000003b0: 58a8 88be f543 d4be 04b6 453e 14e9 153e
000003c0: 7f4d 14be e4b0 19be f5a6 b5bd 400b 00be
000003d0: 9547 28bf 320e 083f bef2 963e b7e0 0d3e
000003e0: 00d1 953e f4d6 ce3e 0598 12bf 3cbd 22bf
000003f0: 6ab4 0e3e 4ff6 973e 498a ad3d 180c 3abe
0.19311586 0.27126142 -0.085745886 0.307654 0.13338034 0.1315586 -0.34605685 0.16665639
-0.27885845 -0.12884046 -0.4483708 -0.02752159 0.18968806 -0.22309849 -0.77357495 -0.08580331
-0.86607313 0.15240772 -0.49520138 -0.26615697 -0.050711066 0.17380047 -0.02632285 -0.254837
0.16093704 -0.18487868 0.188781 -0.019997753 0.160833 -0.1554215 -0.32432717 0.109363586
-0.17154475 -0.116908915 -0.70540404 0.32491663 -0.7327939 -0.101493865 0.10744292 -0.084229685
0.16114432 0.08509113 -0.24630973 -0.057682812 -0.045870785 0.14641869 -0.035883203 0.32698727
0.092232436 0.3034446 -0.41552442 0.3774093 0.028306704 0.20602466 -1.0386826 0.34907398
-0.6082592 -0.012185948 -0.03217343 -0.33902085 -0.1398013 0.2195307 -0.03854032 0.09464145
-0.25678822 -0.030604826 -0.09348227 -0.047882996 0.19050549 0.14745642 -0.0944632 -0.2939599
-0.08214043 0.12225682 0.23671564 0.03368428 0.4942475 -0.27946317 0.17593357 0.47549596
0.1287536 0.18598035 0.37533566 0.23184732 0.24197768 0.16934551 0.30878332 -0.26918253
0.0314356 -0.012438933 0.3157428 -0.17846553 0.14516206 0.3046875 0.56040055 0.26653984
0.46309426 -0.06988839 -0.14730237 0.25350797 0.093492895 0.03917369 -0.31540334 0.14533111
0.2639089 -0.15306914 0.031034306 -0.008576421 0.027120082 0.34775966 -0.2706515 0.10123517
0.05577791 0.11576648 0.043531373 0.22878194 -0.5312465 -0.075061165 0.1765938 0.6915641
-0.23158103 0.16455097 0.053616412 -0.16218948 -0.010278729 0.20782702 -0.17973684 -0.23870318
-0.03542701 0.03300234 0.11192016 -0.24445586 -0.2845955 0.2416776 -0.2998966 -0.18668664
-0.67896366 0.2418238 -0.5555534 -1.065849 0.27973607 0.3640289 0.22519082 0.04218453
-0.13820975 -0.047096472 0.15941899 0.11601364 -0.20191327 0.23061447 -0.016480219 0.35177076
0.07293424 -0.034334086 -0.57557833 -0.17788093 -0.18183461 -0.1636243 0.5124346 0.14563888
-0.2689981 0.23604235 0.21153557 0.20011893 0.15463434 0.13638204 -0.15205643 0.31599134
-0.017284697 0.34366834 0.38382715 0.24461506 0.14604264 0.048847023 -0.025822971 0.15457626
0.5712031 0.019358533 0.71159744 1.0057322 -0.009468555 -0.08152983 -0.06558857 0.060141146
0.0070164083 -0.032624748 -0.066451915 0.39990807 -0.008486977 -0.13516906 -0.4309749 -0.044772025
-0.20578207 -0.29010794 -0.58618724 0.08921468 -0.30550268 -0.06676664 -0.49917006 -0.04282563
0.0835008 0.19385505 0.2178284 0.25281796 -0.23554136 0.18858208 0.17778824 -0.41689047
0.30107722 0.33622766 -0.17280938 -0.30135944 0.5177464 0.30322874 0.0075904387 -0.6261154
0.10163609 -0.41595763 0.1891285 0.14800356 -0.13231204 -0.050270807 -0.19030224 0.04331985
-0.26167893 0.06968669 0.3154198 0.059042 0.4547185 0.3889548 -0.4812712 -0.26240999
0.32713714 0.2616944 -0.35403007 -0.50014275 -0.26690936 -0.41458097 0.19307715 0.14639693
-0.14482687 -0.15008885 -0.08869735 -0.12504292 -0.65734226 0.5314666 0.29482073 0.13855253
0.29261017 0.4039837 -0.57263213 -0.6357 0.1393601 0.29680106 0.084736414 -0.18168676

gru.weight_hh_l1 f4 [30, 10]
00000000: 8dfa 9f3e ece5 e9bd 2e78 edbd e012 90be
00000010: 80fc afbc 8421 37be 36a5 473e 1b27 50be
00000020: 8432 2fbe 6422 1c3e 4ec0 4a3e a5ff 40be
00000030: b7a6 38be 8210 6a3e 13ab 9cbe 30da d03c
00000040: e811 ef3d a282 7bbe 1240 89bd e057 733c
00000050: 7469 f3bd 86e8 b1bd 9a1f 83be b08f 483d
00000060: 62d5 163e c0a2 eabc f1b2 10be b8f0 11bd
00000070: fc2a e4bd 4cf9 a93d b71a 06be a88e 313e
00000080: ae57 3fbe fedf b2bd 0008 29bb 17bb 96be
00000090: 8063 af3b a663 783e 9047 8abd f688 4c3e
000000a0: 48ae 6c3d 06f0 783e a8dc 403d 91c1 85be
000000b0: 4d6e 833e 104e b0bc bafe 3c3e 7824 4bbe
000000c0: 18bb 8b3d f29f 40be bce8 46be 1809 54bd
000000d0: 382a 85be b55c 8ebe 2e7a 303e c22a 79be
000000e0: b648 9abd 6814 113e 2e1b 06be 7e4a 423e
000000f0: 452f 993e 291a 38be 8db5 9f3e b061 163e
00000100: cdfa 8a3e 4e2d 50be 6078 e13d 7e67 34be
00000110: b02c f93c 7e0e 633e dac2 9dbe 88a1 b43d
00000120: 4001 3dbe e390 8a3e b0b5 153e 62ec 87bd
00000130: 766f 07be a253 533e 567c 93be 6684 553e
00000140: cef1 443e 6ac3 efbd 6e26 453e c76f 5bbe
00000150: c295 4dbe e845 e8bd 96c6 d1bd 2344 34be
00000160: 56a8 093e 9142 8b3e 4e15 163e aac6 7cbe
00000170: 91fc 8bbe 84c7 7abe ecfb 98bd 3b04 a13e
00000180: 8c94 ff3d cee7 463e 0c8f 8c3d 67e1 90be
00000190: 8072 cc3b f646 603e 40c7 01bc 1ebe cfbd
000001a0: 60d0 0c3c a568 8d3e 96b8 1fbe 8f5f 34be
000001b0: 6859 35bd a82b 4abd 0c76 093e 4098 b33b
000001c0: be75 643e 8660 c4bd 2044 de3c e877 82be
000001d0: 920f 27be cc3c 84be 677f 983e 4e48 9dbe
000001e0: d19f a13e 9ebd 4e3e d5c0 16be 109d 6cbe
000001f0: 500b a63c 65be 9cbe 6022 b43c 5016 2a3d
00000200: 6384 35be 3082 3cbd 60c1 773c b4b5 55be
00000210: c301 3bbe 80ce 7c3d a19d 9cbe d566 9dbe
00000220: 246f b33d cefc 9ebe c0ea 47bc 28b5 e73d
00000230: 8d5b 5dbe 8712 6ebe f70d 843e 3ed0 703e
00000240: 5d95 9e3e 1e9a 533e 7a17 293e b3f9 953e
00000250: 1c86 90be 30e1 e73c 2042 67bc 766d 503e
00000260: a862 463d a7cd 8a3e 2e1e 4d3e 715e 803e
00000270: c018 623c 180e 4cbd 7ec0 f9bd 4cc1 d53d
00000280: 68c5 b83d 009b 3f3d 68b3 c93d 8acd fabd
00000290: 548c 9bbd 762d 2e3e 21fb 30be 4e96 5b3e
000002a0: e409 34be 72a7 d2bd 134e 98be 588e 3fbd
000002b0: becd 3a3e a421 303e e069 7ebe 3007 963d
000002c0: 2561 03be c4ce d33d eb88 7dbe 6c49 c53d
000002d0: f63d 6f3e c0c4 a93d 30c2 523d 158e 853e
000002e0: 463a edbd 1a2b 023e 1513 913e 6c25 e53d
000002f0: a4ec d43d 72fe 8cbe 5016 de3d f65d 403e
00000300: a0fa 58bd 64ce 893d a387 8f3e 5ede e1bd
00000310: 4c0f 113e 2049 afbc 4a06 54be 8295 073e
00000320: be31 673e 52ce debd a0bf 27bc 1ae8 73be
00000330: 8430 93bd b76e a03e bce2 0abe b04a 363d
00000340: b8af e03d 5425 83be 78c0 6bbd a5e9 a03e
00000350: 7033 debc 083e 93be 4809 ed3d ee1c a0be
00000360: 006e 84be a392 983e 9a87 523e c614 97bd
00000370: 50d3 8dbc 38ad 79bd baf1 5e3e d011 38bd
00000380: 3e00 533e 7c31 0a3e 7b49 a13e acd7 913d
00000390: 74a1 aabd f798 883e fa6f 11be c0ad 4ebe
000003a0: e64f 36be f071 93be 2f57 93be bb04 71be
000003b0: 3936 95be 6698 053e 02b3 6c3e aef5 363e
000003c0: 7ebd 283e be08 403e b855 29bd 6017 f5bc
000003d0: 260a 403e fa94 e4bd c27b 9bbe 73f6 1fbe
000003e0: e5b0 89be f8e4 94bd 56d8 6cbe 0b04 43be
000003f0: 0e45 4cbe 8a2a 95be d1b2 19be d189 19be
0.31245843 -0.11420807 -0.11595188 -0.281394 -0.021482706 -0.17883879 0.19496617 -0.20327418
-0.17109114 0.15247494 0.19799921 -0.1884752 -0.18032347 0.2285786 -0.3059927 0.025494665
0.11673337 -0.24561551 -0.067016736 0.014852494 -0.11885348 -0.086869285 -0.25610048 0.048965156
0.14729837 -0.028642058 -0.1413076 -0.035629958 -0.11141011 0.08299503 -0.13096128 0.17339575
-0.18685791 -0.08734129 -0.0025792122 -0.29439613 0.0053524375 0.24256763 -0.06751931 0.19974121
0.057783395 0.24310312 0.047085434 -0.26124242 0.2567009 -0.021521598 0.18456545 -0.1983813
0.06822795 -0.18811014 -0.19424719 -0.051766485 -0.26008773 -0.27805105 0.17234108 -0.24332717
-0.075334 0.1416794 -0.13096306 0.18973729 0.29918876 -0.1797873 0.311932 0.14685702
0.2714447 -0.20329782 0.11009288 -0.17617604 0.030416816 0.22173497 -0.30812722 0.08819872
-0.18457508 0.27063665 0.1462009 -0.06636883 -0.13226113 0.20637372 -0.28805798 0.20851287
0.19232866 -0.11707194 0.19252941 -0.21429358 -0.2007666 -0.113414586 -0.102429554 -0.17604117
0.13443121 0.27199224 0.14656565 -0.2468516 -0.2734113 -0.24490172 -0.07469925 0.3144854
0.12479505 0.19424364 0.068632215 -0.28296968 0.0062392354 0.2190207 -0.00792104 -0.10143684
0.008594602 0.276189 -0.15597758 -0.17614578 -0.044274718 -0.04935804 0.13423938 0.005480796
0.2231054 -0.09588723 0.027132094 -0.25482106 -0.16314533 -0.25827634 0.297847 -0.30719227
0.31567243 0.2018952 -0.14721997 -0.2310679 0.020269066 -0.3061401 0.021989048 0.041525185
-0.17726283 -0.046022594 0.015121788 -0.20870095 -0.18262391 0.06172037 -0.3058901 -0.30742517
0.08761433 -0.3105225 -0.012201965 0.1131385 -0.21616955 -0.23249255 0.25791904 0.23516938
0.3097333 0.2066426 0.16512862 0.29292068 -0.28227317 0.02830562 -0.0141148865 0.20354256
0.04843393 0.27110025 0.20031044 0.25072053 0.013799846 -0.04981813 -0.12194918 0.10437259
0.09022027 0.04677868 0.09848672 -0.12246235 -0.07595125 0.1700953 -0.17283298 0.21444055
-0.17581898 -0.10285844 -0.29747066 -0.04676661 0.18242547 0.17200333 -0.24845076 0.0732559
-0.12830026 0.10342172 -0.24759261 0.09633145 0.2336348 0.0828948 0.051454723 0.26084962
-0.115833804 0.12711754 0.2833487 0.11188778 0.10396698 -0.27537876 0.108440995 0.18785843
-0.05297339 0.06728819 0.2803317 -0.11028741 0.14165992 -0.021397173 -0.20705524 0.13240626
0.22577569 -0.10879196 -0.010238558 -0.23819008 -0.07186988 0.3133447 -0.13563055 0.04450482
0.10971016 -0.25614417 -0.0575566 0.31428257 -0.027124137 -0.28758264 0.11574036 -0.31272072
-0.25865173 0.29799375 0.2055954 -0.07377009 -0.017312676 -0.06095621 0.21771899 -0.044938862
0.20605561 0.1349544 0.31501374 0.07121214 -0.08331576 0.26679203 -0.14202872 -0.20183468
-0.17803916 -0.28797865 -0.28777453 -0.23536961 -0.2914293 0.13046417 0.23115161 0.17867157
0.16478536 0.18753335 -0.041341513 -0.029918373 0.18753871 -0.111612275 -0.30367857 -0.15621357
-0.26892772 -0.07270235 -0.231294 -0.19044511 -0.19948217 -0.29134017 -0.1500962 -0.14993979

gru.bias_ih_l1 f4 [30]
00000000: 7d36 eb3c e9d4 a53e 04bb 14bd 3d73 803d
00000010: 0513 b43d 703f 2c3e 989f 323d c58a b33d
00000020: a5f5 f9bc ba9c 5c3d 9dfc 36bf 78f8 56be
00000030: a43f 8bbe cba4 d4bd 8acd cabd 2226 8c3c
00000040: 250b c8be 2210 15be 1ed2 a5be 9497 98be
00000050: 7249 593d 6abb 2d3e 44c4 e43c 7d2e 2c3e
00000060: 8c0a 8bbe 884c 36bd f3c0 61be bde3 88be
00000070: d941 61bd d04c 3d3e
0.028712505 0.32389 -0.036311164 0.0627198 0.0879269 0.16821074 0.04360923 0.087667026
-0.03051264 0.053860404 -0.7147921 -0.20993221 -0.2719699 -0.10382994 -0.09902485 0.017108027
-0.39071003 -0.14556935 -0.3238687 -0.29803145 0.05304856 0.16966024 0.027925618 0.16814609
-0.27156484 -0.04450658 -0.2204626 -0.2673625 -0.054994438 0.18486333

gru.bias_hh_l1 f4 [30]
00000000: 9993 d1bd 8bfb 0cbe 803b 883e fc72 1d3e
00000010: 2bde c4bd b716 2fbd 7cd3 8fbd 0cc6 493e
00000020: e0df 80be df93 7f3e 07fe 36bf f2c2 fabe
00000030: dd16 a7be 9160 72be c1be 56be f6db 253d
00000040: dad4 abbe f7b4 f2bd decd 88bd a64f 30be
00000050: bc97 bc3e faad a83e e266 89be 6809 843e
00000060: 81ae 503e 9032 23be cd6c e2be 5d87 8ebe
00000070: 7bde 9cbe a3a5 abbe
-0.1023323 -0.13767831 0.26607895 0.15375894 -0.09612688 -0.042746272 -0.07022759 0.19704455
-0.25170803 0.24958752 -0.71481365 -0.48976856 -0.3263463 -0.2366965 -0.20971204 0.040492974
-0.3356083 -0.118509226 -0.06679891 -0.17217883 0.36834514 0.32945234 -0.26836306 0.25788426
0.20379068 -0.15937257 -0.44223633 -0.2783765 -0.3063849 -0.33524808

gru.weight_ih_l1_reverse f4 [30, 20]
00000000: 0806 043e 7bf4 b53d 71f6 d3be ec52 76be
00000010: 2188 133e 5d50 6dbe 2a1f 37be a996 2e3e
00000020: 9c00 03bd c1e2 95be 3e75 a03e c7c9 7a3e
00000030: e8f1 44be b2bc d2be abb3 6d3e 0f35 b23e
00000040: deb6 523e 0a67 923e e6af d43d fdad 783e
00000050: 6b9b c53d a060 c5be 4845 3d3e 804c dd3d
00000060: 9c31 2d3e 7a46 14be 0d78 b7bc 18df 82be
00000070: 118d d3be f079 86bc 9c9d 16be f9bb 4d3e
00000080: e68f cdbe 29e5 a5bd cc7e 74bd bd3b da3e
00000090: cc6c cfbd dd6a be3e 7c30 113e b2cd 193f
000000a0: 28eb 2cbe 5c0f 9abe f11a dabe cf11 b23e
000000b0: ab9c 51be 2894 f9bd fe8c 9abc 29a7 073e
000000c0: 0db3 9dbe 7c9a e73d a675 923e 3bdf 033f
000000d0: e1e7 16be 4b62 7bbe d131 3b3e a510 07bd
000000e0: 4749 4e3d 65e5 22bd 0961 07bf 284e 0fbe
000000f0: 1b31 1c3e b5ba cfbe 5f2b 893d f983 5dbd
00000100: e100 d0bd 5802 64bd bb69 573d c95f 58be
00000110: b6f6 d3bc 2516 02be 51ba 0fbe 6686 5dbe
00000120: 3efc b0be c4db 873d d33d d13e 72f0 0c3e
00000130: 232a c1be 3190 4fbe edaa 153e 7332 48bd
00000140: a539 8ebe 9cdf 00bf c544 78bd 2111 2f3e
00000150: 1e7d 523e ff0d 0b3b 9491 a2bb 6500 6fbe
00000160: aab5 16bf 046b f9bc fb71 1b3d 46fa 883e
00000170: 11c6 7cbe 9e86 34bc 15b7 f93d 89d8 273e
00000180: 08ef 11be 971f 043e fb3c 6ebe 5be0 003f
00000190: f526 3f3e 0696 ea3d 794e 48be 1ed0 103e
000001a0: ea26 e53e cd2c 9fbd a265 c4be a63c 2b3e
000001b0: 27ac 00bf c9f5 6b3d 1549 193e a7b5 033e
000001c0: 425d ffbe 5579 19bd 09b0 083e df86 0d3f
000001d0: 81d9 1d3d aac9 e7bd 6dec 9bbe a753 a5bc
000001e0: 5737 20be dd85 3cbe 4356 f0bd 54a8 dabe
000001f0: 5df7 883e 135a 603e fdb8 57be e7d5 633e
00000200: 23ef 85bd 26c8 7cbe 0bd2 ebba b2b8 273e
00000210: 8b9c 2abd c9ef 88be 4685 04bf 3805 04bb
00000220: a9da b6be 3db8 7c3e 67f1 ffbd 045b 45bd
00000230: cdb2 a33d b6f6 e0bd b412 213e ed9b 58be
00000240: 696d 623e 2523 633e c9b6 bebe 6f7b cc3e
00000250: 48a6 bc3c e67c 903e 020d 183e 8ba2 753e
00000260: 0bb2 ff3d 01ea 753e 167e b13e da45 0a3e
00000270: 25b6 a63e 1fa3 163f 7640 fabe b9c2 093f
00000280: f2b1 783b 8c58 a7be fa23 3e3e 8450 e23e
00000290: 6a8f 8ebd 6273 ccbe 0494 cbbe 27eb 623d
000002a0: 3759 f4be 8022 a33c 3681 03bc 1d43 0cbc
000002b0: 1fa6 efbe 320f 083d 797a fabe 57a2 223e
000002c0: 86bc e53e 66e1 40bd e7ee fb3d 90ff 793c
000002d0: 66e8 cb3d 746e ee3e fdfa 023e d38c b4be
000002e0: 9d71 003f 9320 f6bd ec8b d13c 3ff2 0d3c
000002f0: 3534 fabe 9c80 b43c 3d4c fc3e 0d0a 173e
00000300: 721c 02bf edc9 b1be 92a4 893e 98a9 103e
00000310: 0eb4 3b3e f4c4 a73d 37d0 0dbe 67ca 933e
00000320: 3169 5f3d e7f3 d2bd b4db f0bc 8031 17bf
00000330: aa8a 743e 27bb 06bf b3f0 c3bd c147 dabd
00000340: e177 e2be 7212 0abe 8520 4d3e 522e 30bd
00000350: 7b53 ffbe 74a0 8cbd 6171 21bd c4f7 c13e
00000360: 4ac9 8d3e 1827 883e b9d0 583c 7f7f c03e
00000370: 55b8 24bd 6b02 443d 2b98 4abe 1102 22be
00000380: c131 e23d 3d4f 88be 4a57 c2be 93c1 96bd
00000390: aca1 4fbe d272 2b3e d950 f43d 4e95 663e
000003a0: 5b01 10bf b022 debe 802c 183f 8548 883e
000003b0: a071 56be 5622 303e 3696 59be f6a6 143e
000003c0: 3d78 1abd 94e9 3abd 56f7 423e c836 a03e
000003d0: 1185 8a3d d197 ccbe c8b1 12be 5ffd efbe
000003e0: 1943 9e3b a513 36be 4985 b43e 0a38 0d3f
000003f0: 85f9 b1bd af86 a3be c642 e53e 8a09 3c3d
0.12892926 0.088845216 -0.41398957 -0.2405507 0.14407398 -0.23175187 -0.17882982 0.1704966
-0.031983003 -0.29274562 0.3133945 0.24491034 -0.19232905 -0.41159588 0.23213069 0.34806105
0.20577571 0.28594238 0.103851125 0.24285121 0.09648784 -0.38550282 0.1848346 0.10805607
0.16913456 -0.1448001 -0.022396112 -0.25560832 -0.41318563 -0.016415566 -0.1470856 0.20091237
-0.40148848 -0.081003495 -0.059691235 0.42623702 -0.10128173 0.37190905 0.14178652 0.6007949
-0.1688658 -0.30089843 -0.4259868 0.34779212 -0.2046992 -0.12186462 -0.018866058 0.1324736
-0.30800667 0.113087624 0.28605384 0.515125 -0.14736892 -0.24549215 0.18280722 -0.032974858
0.05036285 -0.03976955 -0.5288244 -0.13994658 0.15253107 -0.40572134 0.066977255 -0.054080937
-0.10156418 -0.055666298 0.052591067 -0.21130289 -0.025874477 -0.1270376 -0.14035918 -0.216333
-0.34567446 0.06633714 0.4086748 0.13763598 -0.3772746 -0.20269848 0.14615984 -0.048876237
-0.27778354 -0.503412 -0.06061246 0.17096378 0.20555541 0.002121806 -0.004961202 -0.23339994
-0.5887095 -0.030446537 0.037950497 0.26753443 -0.24684931 -0.011018423 0.12193123 0.16391195
-0.1425134 0.12902676 -0.2326545 0.5034234 0.18667205 0.11454396 -0.19561185 0.1414189
0.44756252 -0.07772217 -0.3835879 0.16722354 -0.50262684 0.057607446 0.14969285 0.12862264
-0.49875838 -0.037469227 0.13348402 0.5528392 0.038537506 -0.11317761 -0.30453816 -0.02018149
-0.1564611 -0.1841044 -0.11735203 -0.4270655 0.26751223 0.2190936 -0.21066661 0.22249566
-0.06539752 -0.24685726 -0.0017991675 0.1637905 -0.041653197 -0.26745442 -0.5176586 -0.0020144712
-0.357137 0.24679656 -0.12497216 -0.048182502 0.07993088 -0.109845564 0.15729791 -0.21153231
0.22112049 0.22181375 -0.3724883 0.39937922 0.023028508 0.2822029 0.14848712 0.23987786
0.12485131 0.24015047 0.34666508 0.13503209 0.3256084 0.58842653 -0.48877305 0.5381275
0.003794786 -0.32684743 0.18568411 0.44202054 -0.06960948 -0.3993178 -0.39761364 0.05540004
-0.47724316 0.019913912 -0.008026412 -0.008560923 -0.46806428 0.033217616 -0.48921564 0.1588224
0.44870394 -0.047089957 0.123014264 0.015258685 0.09956436 0.46568644 0.12791057 -0.3526369
0.5017336 -0.12017932 0.025579415 0.008663713 -0.48867956 0.022033982 0.49276915 0.14749928
-0.50824654 -0.3472437 0.2688337 0.14127195 0.18330404 0.08191863 -0.13848959 0.28865358
0.054543678 -0.10300427 -0.029401638 -0.59059906 0.23881021 -0.5262932 -0.09567394 -0.10658217
-0.44232085 -0.13483599 0.20031936 -0.043012924 -0.49868378 -0.068665415 -0.039414767 0.37884343
0.27692634 0.26592326 0.013233357 0.37597272 -0.040214855 0.04785387 -0.1978461 -0.15821101
0.11044646 -0.26622954 -0.3795722 -0.0736114 -0.20276517 0.16743019 0.11929483 0.22517893
-0.5625207 -0.4338584 0.594429 0.26617828 -0.20941782 0.17200598 -0.21248707 0.14516816
-0.037712324 -0.045632914 0.19039664 0.31291795 0.06763662 -0.39959577 -0.1432563 -0.46872994
0.004829776 -0.17780931 0.35257939 0.55163634 -0.0869017 -0.31938693 0.44777507 0.045907535
