flask_app/dialect_checkpoint.pt (torch_old, 707563 bytes, 19 tensors)

res1.conv1.weight f4 [32, 1, 5, 5]
000000 30 19 a2 3d 4a 1b bf bc 19 4a 8e bd 0e ce c6 bd
       0.079149604 -0.023328442 -0.06947727 -0.097072706
000010 69 8d 53 bd 2d 4d 2f 3e 2f 33 83 bd e5 5b 24 bc
       -0.05164853 0.17119284 -0.06406247 -0.010031675
000020 6b 03 e3 bc 2e d9 03 bd 27 3d 89 3d c7 2d 68 3d
       -0.02771159 -0.03218954 0.06701117 0.05668428
000030 8c 4b e6 3d 0a 5d 4b bd 93 1c a7 3d b6 24 c3 3d
       0.11244878 -0.049649276 0.08159747 0.095284864
000040 85 ee 80 3d ed be 12 3d 20 e1 f5 bd 21 4b 0a 3d
       0.06295494 0.035826612 -0.1200583 0.033763055
000050 62 60 c6 3d 9b 75 52 3d 2e 8a aa 3c 2d ad f6 bc
       0.09686352 0.05138169 0.020817842 -0.030111874
000060 1b 85 39 3d 18 1a 8b 3b 93 8b 1e 3d 42 2f ee 3c
       0.045292955 0.004245054 0.038707327 0.029075269
000070 c7 da a2 3c de a9 28 3d a7 cf bf bb 13 05 65 bd
       0.019879712 0.041177623 -0.0058536115 -0.055913042
000080 59 01 7a 3c 95 2a 1c 3d 25 ba 0b 3e c8 fa 43 3c
       0.01525911 0.038126547 0.13645227 0.011961646
000090 8e 5c 91 bd f3 20 70 3d 5c 61 7a bd 30 0a a2 3d
       -0.070977315 0.058625173 -0.061128005 0.07912099
0000a0 33 77 96 ba 81 cf 7e bc c7 41 16 bd 16 73 67 3d
       -0.0011479616 -0.0155524025 -0.036683824 0.05650624
0000b0 02 33 08 3e 48 92 c5 3d c1 44 da bc 4d 03 82 3d
       0.13300708 0.096470416 -0.026644113 0.06348286
0000c0 92 d2 0a 3e 2d de 82 3e 9f 95 a3 3c fa 39 35 3d
       0.13556889 0.25560132 0.019968806 0.044244744
0000d0 3f 6a 7d 3d a1 c1 0c 3e ee e0 96 bd 2d d6 6c 3b
       0.061868902 0.13745739 -0.07367121 0.00361384
0000e0 f5 93 1b bd cf 41 c1 3a e4 be 0a 3e ef 16 de bd
       -0.0379829 0.0014744344 0.13549381 -0.10844218
0000f0 46 73 a5 3c 70 75 fc bc 6d 41 18 3c c5 78 a7 3c
       0.020196568 -0.030817717 0.0092929425 0.02044333
000100 d0 91 53 bd ee 50 9e 3b ea 4f 96 3d 9a 97 2f 3d
       -0.05165273 0.004831425 0.07339461 0.042869188
000110 2d 33 e3 3d 4b aa 22 bd 08 2b 26 3d ed d3 a0 3b
       0.110937454 -0.039713185 0.04056838 0.004908076
000120 1a be e3 3d c7 42 1b 3d fa 84 1e be a1 d6 37 3d
       0.11120243 0.03790548 -0.15480414 0.04488242
000130 19 5c cf 3d c6 3d 28 bc 0e 2c 56 3d 58 db cb 3c
       0.10124988 -0.010268634 0.052288108 0.024884865
000140 ce 80 09 3d 16 ad dd 3d 85 e9 e0 bb 1e b6 3b bb
       0.033570103 0.10824029 -0.006863775 -0.0028642486
000150 b9 87 ac bc 0c 7a 54 bb 05 bd 0e 3d a9 fd 6c 3d
       -0.021060811 -0.0032421378 0.03484823 0.057859097
000160 48 b9 9c 3d 22 ec 18 bd ee 61 10 3e 90 4e 8f 3d
       0.07652527 -0.03733457 0.14099857 0.069974065
000170 ec d4 89 3d 7d 17 80 3d 8c 58 87 3c e2 6f 5d 3c
       0.06730065 0.0625448 0.016521715 0.0135154445
000180 bc 94 90 3d 1b fb 19 3d 2a 6f 0d 3e 40 55 84 3d
       0.07059619 0.03759299 0.13811937 0.06461573
000190 ec 3a 9e bc 58 23 8d be 31 3d 0f 3e 2c 9c 8b bd
       -0.019315206 -0.27566028 0.13988186 -0.06816897
0001a0 80 4f 7d bd c3 66 2f bb 47 ce 59 be 99 52 73 bc
       -0.061843395 -0.0026764132 -0.21270095 -0.014851236
0001b0 23 0b 82 bd 8a a5 a0 bd 25 a6 25 bd 0a 04 39 be
       -0.063497804 -0.07844074 -0.04044165 -0.18067947
0001c0 11 32 f9 3c 61 8b 44 bd 27 00 d5 bd fb 35 aa bb
       0.030419381 -0.047984485 -0.1040042 -0.0051944233
0001d0 bc 07 1e be 88 69 b0 3c 14 69 c5 bd 7b ea e3 bd
       -0.15432638 0.021534696 -0.09639183 -0.11128708
0001e0 3d ae ab bc 38 df 89 be d8 08 66 bc 65 ff 2d be
       -0.020957107 -0.26928115 -0.014040194 -0.16991957
0001f0 68 1c 0e be fd db 3a bc ab ee 37 3c 06 c2 dc 3d
       -0.13878024 -0.011404988 0.0112263365 0.107791945
000200 d8 61 32 be 92 c3 33 3e 8b 4d 0b bd a2 d6 4d bd
       -0.17420137 0.17555073 -0.034009498 -0.050253518
000210 d4 5e e4 3d 1d 33 13 be cb ac b6 3c 61 42 6a bd
       0.111508995 -0.14374967 0.022299191 -0.05719221
000220 91 9c f2 bd 53 77 10 3e b1 d5 9c bd 46 a2 aa bd
       -0.11846269 0.14108019 -0.07657946 -0.083317325
000230 be e6 97 3d 85 44 17 3d 9b 3c f2 3d f5 b0 bb bd
       0.074170575 0.03693058 0.11827966 -0.09164611
000240 05 45 dc 3c de e6 b2 3b a5 c5 62 bc e3 c5 95 3e
       0.02688838 0.0054596504 -0.013841067 0.29252538
000250 73 a1 a2 bd b8 b5 63 bc 59 7f e7 3c a9 f4 22 be
       -0.0794095 -0.013898306 0.028258966 -0.15913643
000260 8e 48 06 bd 84 9f 61 3e ea 88 14 3d 97 33 31 3d
       -0.032784037 0.22033507 0.036263384 0.04326209
000270 fe ab e6 bd c9 de 80 3d 95 11 83 3d 61 2f a8 bb
       -0.11263274 0.06292493 0.06399838 -0.005132601
000280 99 9f 65 bd c2 2e 1d be 10 a9 0c bc 9b 97 10 3d
       -0.056060407 -0.15349868 -0.0085852295 0.035300832
000290 60 ee d5 3d c9 f9 84 3d 73 44 00 be 84 cd 82 3d
       0.10445857 0.06492955 -0.12526111 0.06386855
0002a0 b5 22 8b 3d 73 95 81 bd 4b c9 1d 3d d5 39 6c bd
       0.06793729 -0.06327333 0.038522046 -0.05767234
0002b0 d9 bd 78 3d 95 30 4c 3d 8e 76 c3 3d 99 51 db bc
       0.060727928 0.04985102 0.09544097 -0.026772307
0002c0 f5 76 bf bd 12 6c 55 3d e3 c2 4d be c0 5f 15 3d
       -0.09348861 0.052105017 -0.20093875 0.036468267
0002d0 b2 00 90 3d f2 55 02 be fa ee ec 3c 26 97 71 bd
       0.070313826 -0.12728098 0.028922547 -0.058982037
0002e0 03 38 5d 3d 87 21 ef 39 a0 81 e0 bd 44 5a a7 bc
       0.054008495 0.00045610612 -0.10962224 -0.020428784
0002f0 88 8a 62 bd 0b 39 9e 3d 3a 27 42 3d 12 31 f8 bd
       -0.055307895 0.07725724 0.04740069 -0.121187344
000300 d2 9e 94 3c 1f b9 1c be f0 62 d3 bb 26 37 44 bc
       0.018142138 -0.15304993 -0.0064510033 -0.011976039
000310 0a 48 f6 bd 53 92 31 3d 5b 05 90 be 1a 21 b1 3d
       -0.12025459 0.043352436 -0.28129086 0.08648892
000320 89 7a ad 3d 07 0a 10 3e 1b 07 9d 3d 8a cf 7a 3d
       0.08470637 0.14066325 0.07667371 0.06123308
000330 fb 19 55 3e ff 16 e2 bc eb 07 ae 3d 79 25 f4 bc
       0.20810692 -0.027598856 0.08497604 -0.029803025
000340 70 3e e5 3d bb bd 0c 3e f4 56 3b bc 02 f1 10 3e
       0.1119355 0.13744251 -0.011434305 0.14154437
000350 9e 3a ef 3c 52 72 01 3e 3c 02 46 3e a1 4b 8b 3c
       0.029202756 0.12641266 0.1933679 0.017003836
000360 5f 7c 61 3c 8c 1f 9e bd c5 1f 00 3e e4 62 3d 3e
       0.013762563 -0.07720861 0.12512119 0.18494755
000370 16 81 21 3d 90 0e 90 3d 47 0c 85 3d 1e df 9d 3d
       0.039429747 0.070340276 0.06496482 0.07708572
000380 c3 33 e6 3d e2 d4 e5 3c ad ed f5 bc 00 99 e4 3d
       0.112403415 0.028055612 -0.03002056 0.11161995
000390 fc ad b8 bd 7b 98 8c 3b e2 c2 f7 bb 2f 6f 30 bd
       -0.0901756 0.004290638 -0.0075610736 -0.043074783
0003a0 98 5e d9 3d cd e6 10 bd de 66 76 3c f3 be 3a 3d
       0.106137455 -0.03537636 0.015039174 0.04559226
0003b0 d6 c1 8a bd 28 1c dd 3c 54 1f 01 be 1e dc a8 3c
       -0.067752525 0.026990965 -0.12609607 0.020612773
0003c0 f7 4e 6f 3c 1e 5b 9e bd dc c8 31 3d e4 55 59 bd
       0.014606229 -0.07732223 0.043404445 -0.053060427
0003d0 62 e6 a6 3d 3f 46 95 3d 8a 43 6b bd 4c 50 cf 3d
       0.08149411 0.07288789 -0.057437457 0.10122737
0003e0 dd 72 7b 3d c1 62 b4 3d dc 50 94 bc 3d cd bc 3d
       0.06138884 0.08807898 -0.018104963 0.092188336
0003f0 8b e0 c2 bd c1 12 c6 bc 2d 22 c9 3d 7b 09 c8 bc
       -0.095154844 -0.024178864 0.09820972 -0.024418583

res1.bn1.weight f4 [32]
000000 62 36 7b 3f eb 61 82 3f d0 bd 95 3f 43 9e 88 3f
       0.98129857 1.0186132 1.1698551 1.0673298
000010 53 6f 74 3f 6b ec 84 3f 0e 73 88 3f 07 1e 93 3f
       0.9548237 1.0384649 1.0660112 1.1493539
000020 8d 4c 6b 3f e4 a8 87 3f 69 62 4a 3f 0d db 83 3f
       0.9191368 1.0598416 0.7905641 1.0301224
000030 0e 9e 90 3f 0d ac 94 3f be a0 61 3f e5 4f 78 3f
       1.1298234 1.1615006 0.881359 0.9699691
000040 d8 b5 7a 3f c4 26 86 3f 65 44 70 3f 54 4c 64 3f
       0.9793372 1.048058 0.9385436 0.8917897
000050 ca f1 64 3f 7a a8 88 3f 1a b2 7d 3f 00 c7 84 3f
       0.8943144 1.0676415 0.99099886 1.037323
000060 af 38 90 3f 6e 10 5b 3f 20 7c 86 3f ef 17 8a 3f
       1.1267298 0.85571945 1.050663 1.0788554
000070 b9 ac 91 3f de 0e 7e 3f 35 71 84 3f 93 df 84 3f
       1.1380836 0.99241436 1.0347048 1.038073

res1.bn1.bias f4 [32]
000000 4b 1f 5e 3b aa 6f 95 bd 52 4e bd 3b c9 ab ec bd
       0.0033893164 -0.07296689 0.005777159 -0.11556203
000010 7b 0a 32 bd ce 08 32 3c 5d 18 b9 bd b9 2f 8f 3d
       -0.043467026 0.010866357 -0.0903785 0.06991524
000020 2b e0 d6 ba 99 37 27 bd 05 da 7d be ae a3 e8 bd
       -0.0016393712 -0.040824506 -0.24790199 -0.113593444
000030 10 7a 16 be 3b 81 cf 3d 7e 4a 52 be 20 ae 10 be
       -0.14695 0.10132071 -0.20536229 -0.14128923
000040 5d 8f 10 be eb c3 0b be 18 80 1b be a3 f2 23 be
       -0.14117189 -0.13648956 -0.15185583 -0.16010527
000050 6f aa 16 be c2 1e 10 bd 86 f4 de bc 1a 36 12 3c
       -0.14713453 -0.035185583 -0.027216207 0.008924032
000060 97 7b 11 3c b6 f9 55 bd 63 8c 0b bd 41 90 a9 3d
       0.008879564 -0.052240096 -0.03406943 0.082794674
000070 e0 9d d1 3d 20 99 f5 bc 87 90 40 3d ea 65 aa bd
       0.102351904 -0.029980242 0.047012832 -0.0832022

res1.bn1.running_mean f4 [32]
000000 1a 6e 9d c1 c6 dc d5 c0 7c ab ce c0 35 cc e7 c0
       -19.67876 -6.6832 -6.458433 -7.2436776
000010 87 ab 31 c1 5e 7c d7 c1 5b 35 0f c1 46 40 64 c1
       -11.104377 -26.935726 -8.950526 -14.265692
000020 bd 17 16 3d e4 18 9e c1 ef 43 43 41 6f b2 b6 c0
       0.036643732 -19.762154 12.204085 -5.7092814
000030 49 57 c2 c0 56 30 6d c1 1d 54 57 41 58 5b 00 c1
       -6.073155 -14.824301 13.458035 -8.022301
000040 9c 30 90 c0 9c b1 b2 c0 e0 33 17 41 8b be 3d bf
       -4.505934 -5.584181 9.450165 -0.7411887
000050 22 16 46 3f ab 00 99 c1 41 f5 a9 c0 01 35 ac c0
       0.7737752 -19.125326 -5.311188 -5.38147
000060 78 66 85 c0 88 5d a2 c0 49 75 f7 c0 62 8d 82 c0
       -4.1687584 -5.0739174 -7.733067 -4.0797586
000070 55 4b 9f c0 0a c4 3f c1 9f 12 98 c0 7d 08 05 c1
       -4.977946 -11.985361 -4.752273 -8.314572

res1.bn1.running_var f4 [32]
000000 40 d8 96 45 13 7c c5 43 40 29 5f 44 18 3c 73 44
       4827.0312 394.96933 892.64453 972.93896
000010 e2 11 9c 44 74 6d 3c 46 f5 c2 37 44 56 2f 97 44
       1248.5588 12059.363 735.0462 1209.4792
000020 84 35 87 43 24 32 57 45 4d 49 17 45 cd 0e a5 43
       270.4181 3443.1338 2420.5813 330.11563
000030 0c 92 9e 43 ac 79 b7 44 83 94 25 45 07 ff 2d 44
       317.141 1467.8022 2649.282 695.9848
000040 4b 60 ff 43 3a 05 c9 43 cf 13 9f 44 ac 2c a5 43
       510.7523 402.04083 1272.619 330.349
000050 58 22 23 44 2c e5 2c 45 61 0e 23 44 c6 8f 00 44
       652.5366 2766.3232 652.2247 514.24646
000060 83 7f 2a 44 f1 ce cf 44 5a 8e 24 44 81 89 10 44
       681.9924 1662.4669 658.22424 578.1485
000070 de c4 0b 44 72 48 96 44 7e 2a 0b 44 fb c8 97 44
       559.07605 1202.2639 556.66394 1214.2806

res1.conv2.weight f4 [32, 32, 3, 3]
000000 70 b9 be 3d 12 22 02 be 33 c2 d2 bd 93 96 7a bc
       0.09312713 -0.1270831 -0.10290947 -0.015294689
000010 f7 8e 36 ba 37 cb 98 3d 91 dc 98 bd b0 54 52 bd
       -0.00069640524 0.07460635 -0.07463945 -0.051350296
000020 22 48 82 3d 59 68 82 3d 77 a7 76 bd 60 0f d3 bd
       0.063614145 0.06367559 -0.0602183 -0.10305667
000030 11 9e 74 bc 65 eb a9 bc 24 b8 ff 3d f1 b0 82 bd
       -0.014930264 -0.020742128 0.12486294 -0.06381405
000040 fc 5f 09 3d f9 db 81 bd 47 73 49 be e4 88 eb bd
       0.033538803 -0.063407846 -0.19672881 -0.11500719
000050 63 ef bf 3c 9c 8e cf 3c 77 df 82 3c 98 a3 17 be
       0.023429578 0.025336556 0.015975697 -0.148085
000060 3c 0e 5d bd a6 3e c0 bd b7 83 14 bd 2f bc 02 be
       -0.053968653 -0.09386949 -0.036258426 -0.12767099
000070 d1 44 fe bd 52 5a 01 bd 9c 44 b6 b9 65 dd 15 be
       -0.124154694 -0.031580277 -0.00034764863 -0.14635237
000080 7c 27 ac 3d de 7e 89 be bc 76 19 3c 1e 12 0a 3e
       0.084059685 -0.26854604 0.009366687 0.13483474
000090 43 29 9a 3d 65 d9 84 3d c5 a9 4d 3e fc eb fc 3d
       0.07527401 0.06486777 0.20084293 0.12349698
0000a0 ff 9f 3c 3d 4a 74 8d 3d 5b 3a b1 bc 4e 6f 17 bd
       0.04605102 0.06906946 -0.021634271 -0.036971383
0000b0 85 02 13 3c a3 66 a4 3c 41 aa f0 3c 88 70 82 3d
       0.008972769 0.020068472 0.029378058 0.0636912
0000c0 97 95 e8 3b c2 d5 91 bc 31 54 0e be 26 91 3e be
       0.0070979106 -0.017802123 -0.13899304 -0.18610057
0000d0 b5 3e 16 bc 7e b1 e0 3d ee 41 0c bd 60 90 80 3c
       -0.009170224 0.10971354 -0.034242563 0.015693843
0000e0 d1 04 a2 bc 05 98 b6 bb 0f 52 b2 3e 07 dd 14 be
       -0.019777687 -0.0055723214 0.3482823 -0.1453744
0000f0 2c 02 81 3c 35 b8 16 3e 5a ba 06 3e c6 bb 3d 3e
       0.015748106 0.14718707 0.13157025 0.18528661
000100 27 d9 7d 3d 76 f8 7c 3c 4e 67 a9 3d c4 53 a9 3c
       0.06197467 0.015440097 0.08271657 0.020669825
000110 27 db a4 bc f8 af e2 bb 61 27 e8 bd c3 9a 5f 3d
       -0.020124031 -0.0069179498 -0.11335636 0.05459095
000120 0a e7 06 3e 33 5e 27 bd 8c 08 62 bc 1b a9 21 bc
       0.13174072 -0.04086132 -0.013795983 -0.009866978
000130 0e eb e7 3d 3a 55 d7 3c d1 8d 65 3d a4 7a 9a bd
       0.1132413 0.026285756 0.05604345 -0.07542923
000140 41 14 6f bb 9d 24 ba bd b0 61 75 3d ba 95 13 3d
       -0.0036480578 -0.09089015 0.059907615 0.036031462
000150 c8 93 63 bd 56 93 70 bc 23 a8 45 be b8 1d 60 3d
       -0.055560857 -0.014683565 -0.1930242 0.054715842
000160 d1 5e ce 3b 90 83 56 bd 14 76 3a bd c5 0f a0 bd
       0.006297924 -0.05237156 -0.045522764 -0.07815508
000170 7b ae 00 3e 20 32 5b 3d 89 3f a5 3c 11 c0 d5 3d
       0.12566559 0.0535146 0.020171897 0.104370244
000180 c0 64 e2 3b f5 2e 6c 3d df 4e da 3c 57 1d 3b bd
       0.006908983 0.05766197 0.026648937 -0.045682278
000190 86 5a ae 3e bb a7 b2 bc 1b 0a 27 bc cb 8f 06 3e
       0.3405344 -0.021808496 -0.01019528 0.1314079
0001a0 65 a1 18 be 9c ae 18 3d b0 fc 5e 3e 49 cb 89 3d
       -0.14905317 0.037275895 0.2177608 0.06728227
0001b0 e1 68 6e 3d 45 4b ce 3d d7 1a f1 3d 61 0e 64 bd
       0.05820549 0.1007295 0.117726974 -0.055677775
0001c0 13 2d a9 3c 59 4e bd 3d 8b be 34 be ee 88 b5 b9
       0.020651376 0.09243459 -0.17650811 -0.0003462503
0001d0 92 ba 93 3d 53 3b 4f bb d7 ec 8c 3d dc 22 a5 3d
       0.0721332 -0.0031621053 0.06881111 0.080632895
0001e0 a0 37 12 3d 76 8b 0e 3e 8f b5 81 bd 03 c5 82 3d
       0.03569758 0.13920388 -0.06333458 0.06385233
0001f0 e4 8d 60 3e 6c 4a 4c 3d bf 73 20 3c 83 3c 87 3b
       0.21929127 0.04987566 0.009793221 0.0041270866
000200 a4 37 ad bd b6 6a 40 bd f8 d6 1d 3e 13 62 09 bd
       -0.08457878 -0.046976767 0.15414035 -0.033540796
000210 fa 45 81 bd 67 55 ad bc 11 88 c3 bd ad 84 8b bc
       -0.06312175 -0.021158887 -0.09547437 -0.017031038
000220 37 96 10 3e e4 62 1f bd cd 0f 40 3c eb 4c 5b 3e
       0.14119802 -0.03891267 0.011722517 0.2141606
000230 cb e4 b8 3b 3b 4e 0b be dc 18 23 3e a3 55 45 3c
       0.0056425086 -0.13604061 0.15927452 0.012044343
000240 3c e4 4a bc 19 6f 0f be 5c a2 a5 3c 46 6b eb 3c
       -0.012383517 -0.14007224 0.02021902 0.028737675
000250 b6 4b 72 bd c7 34 57 3d f0 64 98 3c e1 46 a1 bd
       -0.059154235 0.052540567 0.018602818 -0.07874847
000260 34 72 cb bc a2 97 62 bb 67 3e c3 3e 69 f0 f6 bc
       -0.02483473 -0.0034575243 0.38133547 -0.030143933
000270 53 24 fb bd 33 8e 24 3e 58 86 ae 3b 1d 6f 74 3d
       -0.12262788 0.1606987 0.0053260736 0.05967628
000280 0f 21 b2 3e 64 d8 97 bd a9 b7 8d bd 6f e9 32 be
       0.34790847 -0.0741432 -0.06919796 -0.1747186
000290 25 34 50 3d 20 34 3f bd c0 d1 d8 3c 32 ad a5 3d
       0.05083098 -0.04668057 0.026467204 0.08089675
0002a0 43 02 fb 3d bb 47 fb bd da d6 b2 3d fc 4f 94 bd
       0.12256291 -0.12269541 0.08732386 -0.07241818
0002b0 94 21 95 ba 68 96 77 be ed cd 05 3d 94 48 82 be
       -0.0011377805 -0.24178469 0.03266709 -0.25445998
0002c0 9c cf f4 bd bb 88 8b bd db c6 1c bc 1f 57 88 bd
       -0.11953661 -0.06813189 -0.009568895 -0.06657242
0002d0 31 11 12 3d b6 97 77 bd ef 61 49 be e4 61 1c 3d
       0.035660926 -0.060447417 -0.19666265 0.038179293
0002e0 d2 e2 fb 3d 7c 9e bb bd be d6 a4 3d b3 e4 e0 bd
       0.12299122 -0.09161088 0.08048771 -0.10981121
0002f0 db 85 20 be ec 52 31 bd d4 1e b2 3c b4 8e 85 bd
       -0.15676062 -0.04329197 0.021743216 -0.06521359
000300 a9 e7 37 bd 52 ff a2 3d 01 14 cb 3d 01 6b 84 bc
       -0.044898663 0.07958855 0.09915925 -0.016164305
000310 19 19 c0 3c 7e c6 da 3d 70 73 a1 3d 75 b2 02 3e
       0.023449467 0.10682391 0.07883346 0.12763388
000320 b9 47 e6 bc cf fd fc bc 2c 87 77 bd b3 d9 00 be
       -0.028110372 -0.030882744 -0.060431644 -0.12583046
000330 79 d2 e3 bc a9 41 1d 3d 1a 02 22 bd f8 dc df bd
       -0.027810322 0.038392697 -0.039552785 -0.10930818
000340 ad c6 24 bd 6f 97 59 3e c5 d3 7b bd 07 e0 bd bd
       -0.040228534 0.21249174 -0.061481256 -0.092712454
000350 63 71 99 3c 32 69 45 be 52 79 c2 3c 96 c9 b8 3d
       0.018730825 -0.1927841 0.02373949 0.090228245
000360 16 6d 06 3d f3 8a 39 be e8 37 3c 3d 92 7c 2d 3d
       0.032818876 -0.18119411 0.045951754 0.042355128
000370 1d 0a 08 bd a4 63 7d be 31 d9 24 3d f7 48 01 bd
       -0.03321277 -0.24745041 0.040246192 -0.031563725
000380 a9 76 f9 bc ae 49 70 bd bf c2 97 3d 2b 6f b0 3c
       -0.03045209 -0.058664016 0.07410192 0.021537384
000390 fb b9 ba bb d5 c0 74 3d 60 c0 d9 bd 7f a9 56 bb
       -0.00569844 0.05975421 -0.10632396 -0.0032754836
0003a0 57 03 c5 3b 8d e8 8d 3d 3f ee a9 3c 43 bf 32 bd
       0.006012361 0.06929121 0.020743487 -0.043639433
0003b0 67 76 3c be 49 65 1d 3e b9 21 1f bc 10 47 90 3d
       -0.18404542 0.15370668 -0.00971263 0.07044804
0003c0 27 2a 38 bd de 5c 21 3d 15 05 58 3d 0c c8 0e bd
       -0.044962075 0.039395206 0.05273922 -0.03485875
0003d0 57 53 27 be 3d 8f d4 bc 8b cf 46 bd a7 c3 dd bd
       -0.16340385 -0.025947208 -0.048537772 -0.10828333
0003e0 74 df 01 bc 0f 61 09 3d 1c ac db bd ff 8b f4 bb
       -0.0079268105 0.033539828 -0.10726187 -0.007462978
0003f0 06 8c 2a 3e 39 1c 03 be 38 29 cc bd 3e 85 db bd
       0.16654977 -0.12803735 -0.09968799 -0.10718773

res1.bn2.weight f4 [32]
000000 37 d2 a0 3f b1 81 a9 3f fa ea b2 3f 09 3c b4 3f
       1.2564152 1.3242704 1.3977959 1.4080821
000010 e1 70 a8 3f ee 7f b0 3f 16 e3 a8 3f 3b cb a6 3f
       1.3159448 1.3789041 1.3194301 1.3030771
000020 67 86 b3 3f 2c 2e 96 3f 3f fe 9b 3f 62 6e 93 3f
       1.4025391 1.173284 1.2186965 1.1518061
000030 72 67 9b 3f c5 aa a0 3f 18 14 9b 3f 94 2b 96 3f
       1.2140944 1.2552115 1.2115507 1.1732049
000040 e4 0c 98 3f 01 2e 97 3f d6 49 a1 3f f4 27 ab 3f
       1.1878934 1.1810914 1.2600658 1.3371568
000050 ce 89 9c 3f a6 d1 97 3f 74 e9 99 3f c1 36 a3 3f
       1.2229555 1.1860855 1.2024369 1.2751085
000060 f3 03 9e 3f 68 28 97 3f 63 8b 95 3f 33 76 9e 3f
       1.2344955 1.1809206 1.1683162 1.2379822
000070 3f 5c ac 3f 36 ca 96 3f a9 23 b8 3f 32 17 97 3f
       1.3465651 1.178046 1.4385883 1.1803954

res1.bn2.bias f4 [32]
000000 2b 40 ab bd 78 52 a9 3c 0d 0b 87 bd 67 f1 52 bd
       -0.083618484 0.020669207 -0.06593905 -0.05149975
000010 ec 4f 4a bd f1 29 36 bc 2c 70 7e bd 60 be 1e 3d
       -0.049392626 -0.011118398 -0.062118694 0.038755774
000020 cc 0b d7 3b 3e 3c ca bc f3 91 cb bc b9 48 44 bd
       0.0065626856 -0.024686929 -0.024849867 -0.047920916
000030 ce ee c0 bc 4b 95 9d bc ee 95 03 3d 1d b4 ba bd
       -0.023551371 -0.019236227 0.032125406 -0.09116385
000040 b3 42 c1 bd 41 f7 f0 bc be b8 4c 3d 66 c8 ff bc
       -0.0943655 -0.029414775 0.04998087 -0.031223487
000050 32 40 83 bd 04 fe 75 3c d4 1a 30 bd 73 df c9 bc
       -0.06408729 0.015014175 -0.042994335 -0.024642682
000060 fe 01 20 bd 36 8d 37 bd 79 93 61 3b b9 89 4a 3d
       -0.0390644 -0.044812404 0.0034420176 0.04944775
000070 7d 1f 54 bc 92 27 32 bc 47 36 a6 3c a3 55 5e bd
       -0.0129469605 -0.010873692 0.020289553 -0.05428089

res1.bn2.running_mean f4 [32]
000000 87 9a 08 be 7e a0 7c 3f 38 82 a2 3c b9 55 a1 bd
       -0.13340198 0.9868239 0.019837484 -0.078776784
000010 ee 82 0a bf f3 93 8d be 99 32 8f 3e 25 23 a2 3f
       -0.5410603 -0.2765194 0.2796829 1.2666975
000020 9e 0e 99 3f bd e9 ae bf df b3 94 3c 34 41 09 40
       1.1957586 -1.3665081 0.018152175 2.1446047
000030 7c 70 00 40 ca f1 e9 3f 3c e3 23 bf 12 ce 3b 3f
       2.0068655 1.8276913 -0.6401861 0.73361313
000040 f1 7d 30 3f 80 90 50 bf 81 f0 70 bf d0 5f 6b 3f
       0.6894217 -0.8147049 -0.9411698 0.91943073
000050 46 67 1a bf c0 1f f5 3c a8 03 f7 3f 69 d8 84 be
       -0.6031383 0.029922366 1.9297991 -0.25946358
000060 c2 ca 3a 3f 47 a7 b2 3d cd 94 f7 bf 05 04 3c 3e
       0.72965634 0.08723312 -1.9342285 0.18360908
000070 d9 7b 01 3f 77 4e b3 3f ec 53 51 3f c1 1c 82 3e
       0.505796 1.400832 0.8176868 0.25412562

res1.bn2.running_var f4 [32]
000000 92 50 64 3f 79 57 a2 3e 53 1a 23 3f 57 f4 51 3f
       0.8918544 0.3170736 0.6371204 0.8201346
000010 5b 06 6d 3e 42 4f ff 3e 05 93 16 3f 6d 48 f5 3e
       0.23146956 0.49865156 0.58818084 0.4790682
000020 86 8d 05 3f d1 d1 fb 3e 74 b2 71 3f 7c 7a 5a 3f
       0.5216907 0.49183515 0.9441292 0.85343146
000030 2d 6e 4f 3f 3a 46 0a 3f 34 a2 90 3e ef 65 69 3f
       0.8102749 0.5401341 0.2824875 0.91171163
000040 49 bf 9b 3e 05 59 01 3f ff 9d bd 3e 28 51 b9 3e
       0.30419376 0.5052646 0.37034604 0.3619473
000050 f7 7d ba 3e f3 9d 0e 3f e0 49 a2 3e 17 4a 64 3f
       0.3642423 0.5570976 0.31696987 0.8917555
000060 38 04 08 3f e1 32 eb 3e b3 e5 f3 3e 3f 67 30 3f
       0.5313144 0.45937255 0.47636184 0.6890754
000070 42 80 cc 3e 0e 3c 0f 3f 1f 62 23 3f 9d 2a ec 3e
       0.39941603 0.5595101 0.63821596 0.4612626

res1.downsample.0.weight f4 [32, 1, 1, 1]
000000 b5 21 2e 3e 0a 3b d3 bd d2 63 08 3e d7 02 38 3d
       0.17005046 -0.10313995 0.13319328 0.044924583
000010 ce 1e d1 be ec c7 b1 3d 67 04 f5 3e a6 e5 76 bd
       -0.40843815 0.0868071 0.4785492 -0.060277604
000020 34 22 42 bc 0e aa f3 3c 21 83 03 3e 7d 2c 24 bd
       -0.011848975 0.029744174 0.1284299 -0.04008149
000030 6b 6e 3f be d3 4f f4 be a2 68 8c be d3 cd 97 3e
       -0.18694465 -0.4771715 -0.27423579 0.2964922
000040 39 6a f5 3c a7 26 80 be a5 8b 1f bf 38 7f 38 be
       0.029957877 -0.2502949 -0.62322456 -0.1801728
000050 a1 9b 88 be 06 f3 1a be b1 ec 5e 3d aa 6b 17 3f
       -0.26681235 -0.15131769 0.054424945 0.5914866
000060 fc 7b 99 3d 20 bd 66 3e 5e 48 a7 3e 6e d0 bc be
       0.07494351 0.22533083 0.326724 -0.3687777
000070 23 9a 93 3e 34 ef 28 be 93 e4 2f bd df ea c2 3d
       0.28828534 -0.16497499 -0.042942595 0.09517454

res1.downsample.1.weight f4 [32]
000000 21 35 6d 3f f6 86 79 3f cb bb 76 3f 44 6f 6c 3f
       0.92659193 0.9747156 0.963803 0.9235728
000010 1c ff 3d 3f da 05 77 3f e6 03 76 3f 0e 3c 66 3f
       0.7421739 0.96493304 0.960997 0.89935386
000020 b0 72 73 3f d6 b8 7f 3f 32 7b 7d 3f 62 26 73 3f
       0.95096874 0.9989141 0.99016106 0.9498044
000030 b8 72 6a 3f 0b 84 71 3f 16 19 58 3f 0f 33 68 3f
       0.91581297 0.94342107 0.8441328 0.9070291
000040 78 cd 67 3f 63 74 57 3f ea 7e 68 3f 7b 13 7e 3f
       0.90547895 0.8416197 0.90818655 0.99248475
000050 87 21 53 3f c0 a3 77 3f a3 b7 73 3f b8 b0 7a 3f
       0.82473034 0.9673424 0.9520208 0.979259
000060 81 df 73 3f 1f 2b 73 3f 4d c4 7a 3f 8a b3 61 3f
       0.95262915 0.9498767 0.9795578 0.8816458
000070 d8 f7 7b 3f 8d d6 6a 3f 6a 9e 72 3f 0f e8 80 3f
       0.98425055 0.9173363 0.9477297 1.0070819

res1.downsample.1.bias f4 [32]
000000 2b 40 ab bd 78 52 a9 3c 0d 0b 87 bd 67 f1 52 bd
       -0.083618484 0.020669207 -0.06593905 -0.05149975
000010 ec 4f 4a bd f1 29 36 bc 2c 70 7e bd 60 be 1e 3d
       -0.049392626 -0.011118398 -0.062118694 0.038755774
000020 cc 0b d7 3b 3e 3c ca bc f3 91 cb bc b9 48 44 bd
       0.0065626856 -0.024686929 -0.024849867 -0.047920916
000030 ce ee c0 bc 4b 95 9d bc ee 95 03 3d 1d b4 ba bd
       -0.023551371 -0.019236227 0.032125406 -0.09116385
000040 b3 42 c1 bd 41 f7 f0 bc be b8 4c 3d 66 c8 ff bc
       -0.0943655 -0.029414775 0.04998087 -0.031223487
000050 32 40 83 bd 04 fe 75 3c d4 1a 30 bd 73 df c9 bc
       -0.06408729 0.015014175 -0.042994335 -0.024642682
000060 fe 01 20 bd 36 8d 37 bd 79 93 61 3b b9 89 4a 3d
       -0.0390644 -0.044812404 0.0034420176 0.04944775
000070 7d 1f 54 bc 92 27 32 bc 47 36 a6 3c a3 55 5e bd
       -0.0129469605 -0.010873692 0.020289553 -0.05428089

res1.downsample.1.running_mean f4 [32]
000000 c9 11 a5 c0 48 d7 4c 40 34 3c 82 c0 78 1f ad bf
       -5.158421 3.2006397 -4.069849 -1.3525229
000010 03 a5 47 41 45 93 2f c0 49 48 69 c1 ff 33 dd 3f
       12.477786 -2.7433636 -14.580148 1.7281493
000020 68 76 b6 3e 45 4e 71 bf bd ee 7c c0 92 92 9c 3f
       0.35637212 -0.94260055 -3.9520714 1.223223
000030 5f fd b4 40 ab 2b 68 41 b3 f5 05 41 89 15 10 c1
       5.655929 14.510661 8.372485 -9.005258
000040 d5 cc 57 bf 2f 08 f4 40 79 9b 97 41 45 0b af 40
       -0.84296924 7.625999 18.950914 5.4701257
000050 bb 43 02 41 30 8e 90 40 85 7b d5 bf c0 b8 8f c1
       8.141536 4.517357 -1.667832 -17.96521
000060 d4 31 17 c0 a4 72 db c0 4e de 1e c1 c2 92 33 41
       -2.3624163 -6.857744 -9.929274 11.22333
000070 83 cd 0b c1 59 5b a2 40 e5 57 9e 3f 14 3c 3c c0
       -8.737674 5.073651 1.2370573 -2.9411669

res1.downsample.1.running_var f4 [32]
000000 d5 87 02 44 20 05 49 43 eb 80 a2 43 96 9e 0f 42
       522.1224 201.02002 325.00717 35.90487
000010 d2 ef 3e 45 b5 bb 13 43 4c 59 82 45 e7 26 6b 42
       3054.9888 147.73323 4171.162 58.78799
000020 98 82 1f 40 d2 99 8b 41 0a 3c 99 43 58 f8 eb 41
       2.4923458 17.450108 306.46906 29.496262
000030 88 ec 1c 44 7c 1c 81 45 4d ee ab 44 de e6 c6 44
       627.6958 4131.5605 1375.4469 1591.2146
000040 da ad 5f 41 98 a3 8e 44 46 37 dc 45 43 c9 12 44
       13.979944 1141.1123 7046.909 587.1447
000050 c5 93 a2 44 ef 40 c8 43 61 52 5a 42 54 e7 c5 45
       1300.6178 400.5073 54.58045 6332.916
000060 96 23 db 42 7e b1 66 44 81 d0 f1 44 64 79 1a 45
       109.5695 922.7733 1934.5157 2471.587
000070 00 43 bb 44 95 9d fc 43 29 f1 f0 41 b7 c8 29 43
       1498.0938 505.2311 30.117754 169.78404

linear1.weight f4 [256, 640]
000000 05 31 8b be 36 63 44 3d 64 cc 1d bd c5 58 83 3d
       -0.27185836 0.047946177 -0.038525 0.06413416
000010 9e 62 14 3e 61 d6 52 bd a9 22 13 3d 10 10 48 3d
       0.14490744 -0.05147398 0.035921726 0.048843443
000020 d4 aa 47 bd 86 0a 9c bd d8 fc 23 be 3e f2 e0 bc
       -0.0487469 -0.07619195 -0.16014421 -0.02745926
000030 da 5b 81 bb 17 82 2c bd cb 2a 8f bc 9f 3c d3 bc
       -0.003947717 -0.04211625 -0.01747646 -0.025785742
000040 b8 c9 0a bd 8f 6c 72 bc 15 b6 de 3c 0c a6 1a 3d
       -0.03388378 -0.01479639 0.027186433 0.03775601
000050 1f d6 d8 3c 52 f0 36 3d d1 15 1d be 91 b8 22 3e
       0.026469288 0.04466278 -0.15340354 0.15890719
000060 a4 14 bb 3d f2 40 91 3d 13 a8 b7 3d 9f 62 ec 3d
       0.09134796 0.070924655 0.089676045 0.11542248
000070 29 24 2e bd b8 ee 05 be 0b 05 84 bd 63 96 1c bd
       -0.042514954 -0.13079345 -0.06446274 -0.038229357
000080 92 b2 ac 3c 94 00 14 bc 42 e4 c9 bc 76 c1 1d 3d
       0.021081243 -0.009033341 -0.024644975 0.038514577
000090 3f ac 3d bc 27 02 85 3c 11 0a bf 3c 80 b9 9f bd
       -0.011576711 0.016236378 0.02332023 -0.07799053
0000a0 64 c6 4b be 96 d5 26 3d 77 0f 13 3e a8 5e 4e 3c
       -0.19899899 0.040731035 0.14361368 0.01259581
0000b0 a2 39 de 3c 3d fb 13 3d 38 e0 10 bc 03 5a 92 bd
       0.02712709 0.03612827 -0.00884252 -0.071460746
0000c0 d4 0e b2 bd 43 c4 1c bd ee dc 01 3d 56 65 a7 bc
       -0.086942345 -0.038273107 0.031704836 -0.020434063
0000d0 2c cf 17 bc e1 3f 06 3d b2 74 ac 3b 8b a0 ed bb
       -0.009265702 0.032775763 0.0052629346 -0.007251804
0000e0 b1 ed 5b 3d bc 3e 11 bc e5 63 35 bd cf 51 0d bb
       0.053693477 -0.008865055 -0.04428472 -0.0021563654
0000f0 14 b9 97 be 17 95 72 3e 33 75 1b 3e 02 a7 57 3c
       -0.2963339 0.23689686 0.15181427 0.013162376
000100 71 d9 38 3d 36 54 d4 3a cf 99 84 bb eb 0d 9e 3d
       0.045129243 0.0016199413 -0.0040466557 0.077174984
000110 4e 9e 27 3e ff b0 6e 3e 58 27 dd 3d c7 df 7b 3d
       0.16368982 0.23309706 0.1079852 0.061492708
000120 ac 35 36 3d b4 24 18 bd 5d 27 c9 bd 6b 8a be bd
       0.04448478 -0.037144378 -0.09821961 -0.09303745
000130 0c 34 02 be 52 bb 84 bd 65 45 47 bd 18 ba 39 3d
       -0.12715167 -0.06481041 -0.048650164 0.04534349
000140 e8 ab 25 3d 00 30 8d 3d 22 cc b4 bd 25 2c 49 bd
       0.040447146 0.06893921 -0.08827998 -0.049114365
000150 3a 90 c9 bd 03 95 c9 bd 2d 2a 2c 3b e8 24 fe bd
       -0.09841962 -0.09842875 0.0026270256 -0.12409383
000160 ff 83 19 3e fd 61 88 bd 51 6d 35 3d 7b e2 03 be
       0.14991759 -0.06659315 0.044293705 -0.12879364
000170 86 cf c3 bb 90 1b 07 3e 8b 05 6b bd f1 22 a0 3d
       -0.0059756665 0.13194108 -0.057378333 0.078191645
000180 0f 6e fc 3b 52 24 14 bd 1b 3c b4 bc 4d 61 a1 3c
       0.0077035497 -0.03616745 -0.022001317 0.019699717
000190 8f 8d 92 bd d2 dc 24 bd 7c 39 fb 3d 1a 84 0a bd
       -0.071559064 -0.040249653 0.12266824 -0.033817388
0001a0 8c ef 46 bc 82 22 3b 3b 40 e0 9e 3c 33 41 31 bd
       -0.012142073 0.0028554504 0.01939404 -0.04327507
0001b0 65 d5 0a bc 1d 34 13 bd ce 8a 57 3d 10 29 20 3d
       -0.008473729 -0.03593837 0.05262261 0.03910166
0001c0 b9 e3 19 3d dd 1e 1c 3d ff 2e 81 3d 48 53 76 bd
       0.03757069 0.03811537 0.06307792 -0.060138017
0001d0 a3 2c a3 3d fb ff 45 3d bd 1e b8 bb 48 16 40 bd
       0.07967498 0.048339825 -0.0056188987 -0.04689625
0001e0 81 3a b0 bd 64 07 22 3e 99 89 85 3e 4b a0 5d bc
       -0.08604909 0.15823132 0.2608154 -0.013526986
0001f0 cf 49 29 bd 00 8e 68 3d cc 28 25 bd d7 ba 83 3d
       -0.041330155 0.056776047 -0.04032211 0.06432121
000200 ee ad 19 3e 10 09 36 3e 5c 0e 1c 3d 25 6f 93 3c
       0.15007755 0.17776895 0.03809963 0.017997334
000210 ef 29 bf bb 94 b2 5d bd e3 cc 46 3c 53 02 37 bd
       -0.0058338563 -0.054125383 0.01213381 -0.04467995
000220 b3 fb 95 bc 62 1c a5 bd 03 4a 20 3c ef b9 42 3d
       -0.018308496 -0.08062054 0.009783271 0.0475406
000230 30 62 86 bc e1 aa 19 3e 78 43 19 3d f7 41 47 bd
       -0.016404241 0.15006591 0.03741786 -0.048646893
000240 80 9f 82 bd 0b 8a 8b bc 28 ac 6b bc 38 91 d3 bd
       -0.063780785 -0.017033597 -0.014384307 -0.10330433
000250 8e 20 9e bd ed 04 c2 bc 0f a2 7e 3d ac 6a 15 3d
       -0.07721053 -0.02368399 0.06216627 0.036478683
000260 4d 5d ca bc 33 7d 0a 3e 58 87 0e 3e 86 ca 0a 3d
       -0.024702692 0.13524322 0.13918817 0.033884548
000270 7a 29 b3 3d 33 f3 da 3c b7 3a 5c bd 9b 4b b3 3d
       0.087481454 0.026727295 -0.053766932 0.08754655
000280 e5 b8 cf 3c e9 7c 81 3d f9 65 52 be c8 d8 9b bd
       0.02535672 0.06322653 -0.20546712 -0.07609707
000290 07 09 1b bd 4a 25 80 bc b0 a9 a7 bd dd 1d cf bd
       -0.037850406 -0.01564278 -0.08186662 -0.10113118
0002a0 33 2d 77 3d de 7e bf bd c3 37 0d 3d 2b d7 0c bd
       0.06034584 -0.0935037 0.034477007 -0.034384888
0002b0 5d 6d a9 3d c2 23 2d 3d ec 0e 24 3d 92 28 3f 3e
       0.082728125 0.04227043 0.040053293 0.1866782
0002c0 d1 aa 98 bc 46 47 99 3b 87 86 31 bd 35 a4 7e 3d
       -0.01863614 0.004677686 -0.043341186 0.06216832
0002d0 d9 9b 6a bd f2 e6 cc 3c bf ad ae bd 87 8a 82 bd
       -0.057277534 0.025012467 -0.08529233 -0.06374078
0002e0 25 92 0b bb 02 51 2b 3d 5b 6f 0a bc d8 8a 48 3d
       -0.0021296826 0.041825302 -0.008449401 0.048960537
0002f0 29 46 64 3d 8d 29 8e 3d c4 23 84 3d 73 5c 5b 3d
       0.055730972 0.06941519 0.06452134 0.053554963
000300 a4 b1 4e 3d 97 30 ae 3c 73 6b 64 bb c9 df 9c bb
       0.05046238 0.021263404 -0.0034854084 -0.0047874195
000310 83 58 66 bc f3 7c 2a 3d 6a ed 7d 3d eb 36 1f bc
       -0.014059189 0.041623067 0.061993994 -0.009717683
000320 16 a3 9c be a3 d1 ec bb 42 4b 43 3e d4 92 23 ba
       -0.30593175 -0.007227139 0.19071677 -0.00062398356
000330 de 8f af 3c 32 e9 94 b9 b1 34 d2 bc 42 95 ad 3d
       0.021430906 -0.00028402504 -0.02565989 0.08475734
000340 34 b7 0b 3e 41 8c 5e 3e ad 11 04 3e 8b 89 fa 3c
       0.13644105 0.2173319 0.12897368 0.030583164
000350 71 de 91 3d 01 c0 dc bc 05 df 43 3c 77 dc f5 bc
       0.071225055 -0.026947023 0.0119550275 -0.030012352
000360 ef e2 21 bd 52 f5 a5 bc 52 d1 52 bc 90 8b e5 3d
       -0.03952306 -0.02025858 -0.012867289 0.1120826
000370 4f bb cc 3b ad ba 37 3c 08 54 b9 3d ab 7c d5 bc
       0.006247915 0.011213941 0.09049231 -0.026060423
000380 50 6e 3a bc cf 22 78 3d 27 a5 60 3d 78 02 14 3d
       -0.01137884 0.06058007 0.054845 0.036135167
000390 41 d1 07 3e 9e 52 06 3e 9f bc b3 bd b5 6c ef bd
       0.13263418 0.13117453 -0.08776211 -0.11690656
0003a0 a6 d2 64 3b da 56 77 3d c2 f1 af 3c 69 74 f0 3c
       0.0034915595 0.060385562 0.021477584 0.029352384
0003b0 b0 b7 d9 3d 81 1f c3 3d 67 b4 fc 3d b9 06 a3 3e
       0.10630739 0.09527493 0.123390965 0.31841066
0003c0 1f 7e 23 bd cd d6 ef 3d 90 4a 08 3e 88 0a be 3b
       -0.0399152 0.11710892 0.13309693 0.0057995953
0003d0 3d 32 c3 bb 8c 31 86 3c 9c 41 61 bc f7 8c a1 3d
       -0.0059569166 0.016381048 -0.013748553 0.07888215
0003e0 49 c3 af 3c 05 f6 5d 3e 81 4a 0a 3c b0 bd 99 bd
       0.021455424 0.2167588 0.008440615 -0.07506883
0003f0 1d f6 cd 3c 44 82 48 3c 32 72 76 3d 37 29 8f bc
       0.02514177 0.012238089 0.0601675 -0.017475707

linear1.bias f4 [256]
000000 36 52 22 bd ac 6f dd bc d9 5d 08 3c 01 59 82 bc
       -0.039629184 -0.027030788 0.008323156 -0.015911581
000010 d6 9f 1c bc a8 c8 f8 bc 58 c4 0b 3c ad af 3d bc
       -0.009559592 -0.030369118 0.008530699 -0.011577529
000020 7c 95 f8 38 b7 db 77 3b 89 78 07 bd 68 21 27 bc
       0.00011853405 0.003782017 -0.033073936 -0.010200836
000030 1e 7a 75 ba c3 db 34 bc 68 ff 10 3d 8c 6f 8a 3b
       -0.0009364205 -0.011038723 0.035399824 0.004224723
000040 ad c6 15 3c 02 9e 12 3d 65 be 14 bd 15 22 9b 3c
       0.009141606 0.03579522 -0.036314387 0.01893715
000050 3b 60 88 3c 7f 99 a9 3c 86 f4 43 bd d7 7c 31 3c
       0.016647449 0.020703075 -0.047840618 0.010832987
000060 8a c5 8b 3c 7f 4a a8 3c 5b f1 00 bd 9f f5 08 bb
       0.017061967 0.020543335 -0.031480175 -0.0020898355
000070 00 a1 f8 bc c8 36 d6 bc 0f f2 0d bd 10 42 a7 bb
       -0.030350208 -0.026149169 -0.034654673 -0.005104311
000080 6f c6 37 3c 32 f6 59 bc cf c4 80 bc a7 98 9b 3c
       0.011216744 -0.013303326 -0.015718846 0.018993689
000090 4e 7e 0f bd 65 f0 e8 3b 0e bc 44 3c ab f3 d4 3c
       -0.035032563 0.0071087354 0.012007726 0.025995096
0000a0 4e 91 bd bc 68 95 2e bd ce 0a cd 3c a9 fa db bc
       -0.023140576 -0.042622954 0.025029566 -0.026852923
0000b0 65 94 c7 3b 46 6c 35 bd 41 a8 fe bb 5d d0 3a bc
       0.006090688 -0.04429271 -0.0077715223 -0.011402217
0000c0 7f 1b ed bc 66 29 3b 3c c1 0e 07 bd e6 9c 8a bc
       -0.028943775 0.011423444 -0.032973055 -0.016920518
0000d0 ae d4 e8 3c 24 20 1b bd ef de 8a 3c db 87 b2 3b
       0.028421726 -0.03787245 0.016952006 0.005448324
0000e0 d2 40 bd bb 33 e1 b6 3c 50 e1 bc bc e5 d1 fe bc
       -0.0057755494 0.02232418 -0.023056656 -0.031105945
0000f0 cd 37 f6 3c 5b b2 84 3c 7e de fc 3c 84 96 67 3b
       0.030055905 0.016198328 0.030867811 0.0035337517
000100 3d f7 39 bd 5f d0 05 3d 2e 91 02 bd 70 d5 5c bb
       -0.0454018 0.03266942 -0.031876735 -0.0033696555
000110 02 d6 30 bd e5 80 23 bc 97 45 e5 3c d6 eb 61 3b
       -0.043172844 -0.009979461 0.027987285 0.0034472845
000120 56 75 f2 ba 00 13 35 b9 27 a0 0e 3d ef c1 30 bd
       -0.0018498104 -0.00017268583 0.034820702 -0.0431537
000130 87 ec 21 bd 2d 32 2e 3c 7f 2d bc bc 9d 82 0f bd
       -0.03953221 0.01063208 -0.022970913 -0.035036672
000140 32 d2 cd 3c 3f eb 0d 3c 90 bf 42 3c 26 9c 3a 3d
       0.025124643 0.008662044 0.011886492 0.04555907
000150 47 84 69 3b 74 ae 77 3c 0b 7b fd 3c 0f 18 b0 bc
       0.0035631822 0.015117276 0.03094246 -0.021495847
000160 7a 43 28 3c 37 c6 d9 3c 60 ad ff bb 2d c2 fd bc
       0.010269994 0.026583774 -0.0078026503 -0.03097638
000170 86 77 de 3c 42 31 04 3d 83 25 3c bd ac 2c 0a bd
       0.027156603 0.03227354 -0.04593421 -0.03373401
000180 70 07 f1 3b 69 19 08 3d 37 12 3a 3d 92 92 bf bc
       0.007355623 0.033227358 0.045427527 -0.02338532
000190 09 15 32 bd e2 5e 52 3c 91 56 3a bc 7d 5d 10 3c
       -0.043477092 0.012840005 -0.011373178 0.008811352
0001a0 27 e2 1a bb 13 15 d0 bc af 3e f5 bc 57 f6 1a bd
       -0.0023633332 -0.025400674 -0.029937116 -0.037832584
0001b0 d8 32 9e bc 03 1c 7d bc 1f fd 6a 3c 93 d0 94 bc
       -0.019311354 -0.015448573 0.014342575 -0.018165862
0001c0 ba 83 0d 3d 93 7f 9f bc c1 ae a4 3c d2 8f 8a bc
       0.034549452 -0.019470012 0.02010286 -0.016914282
0001d0 80 2b 2c bd 57 21 29 3d f4 d7 28 bd 7b d8 06 3c
       -0.042033672 0.04129156 -0.041221574 0.008230324
0001e0 f5 ca 31 bd 3a 77 d9 bc a3 93 88 bc c1 6f 05 3d
       -0.043406446 -0.02654611 -0.016671961 0.03257728
0001f0 03 76 df 3b be 87 63 bc 6c d6 02 bd e9 e4 90 3b
       0.006819488 -0.013887344 -0.03194277 0.0044218195
000200 1c dc fc 3b 7a 4f 04 3d 4b a7 0d bd d1 0f b6 3c
       0.007716669 0.032302357 -0.03458337 0.022224339
000210 29 e9 d4 3c 4b ee a9 3c 2e ff ad bc 63 6f cf 3a
       0.025990086 0.02074351 -0.021239843 0.0015826043
000220 57 50 a1 bc 09 7d 93 3c 60 27 ae 3c cd a5 1f bc
       -0.01969163 0.018003957 0.02125901 -0.00974412
000230 2e 44 ef bc 60 49 d5 bc f9 ad 14 bd f9 fc c8 3c
       -0.029207315 -0.026035964 -0.036298726 0.02453469
000240 3f 5b 20 bb 09 7d 2c 3c 03 ef 9a 3c f7 b1 6e 3c
       -0.002446845 0.010527858 0.018912798 0.014568797
000250 b0 95 24 3b a9 54 2f bd 7f 73 93 3c 35 79 70 3c
       0.0025113635 -0.042805348 0.017999409 0.0146773355
000260 73 fe 8c 3c 52 79 2d bd 55 91 b9 3b 75 9e 78 3c
       0.017211175 -0.04235203 0.005663077 0.015174498
000270 18 b2 50 bc 36 5f 20 bc 69 b0 15 3c e0 f2 f5 bc
       -0.012737773 -0.009788325 0.009136298 -0.030023038
000280 6b b7 91 bc 30 0e cc bb f3 26 4e bd 9e 9f a6 3c
       -0.017787656 -0.006227277 -0.050330114 0.020339783
000290 64 17 26 bd 7c 2b cd 3c 43 42 a4 3c e9 ae 4e 3d
       -0.04054965 0.025045149 0.020051127 0.050459776
0002a0 1f 7a 86 3c 24 4d d8 bc b3 80 12 3d e8 c5 ac 3c
       0.016415654 -0.026403971 0.03576727 0.021090463
0002b0 6c a6 e4 3b ac e2 da bc 03 e7 99 3c 63 b5 f7 3b
       0.006977847 -0.026719414 0.018786913 0.007559465
0002c0 11 dc 40 bd 0d 5e 28 bd ac c6 10 3b be 6c 6f bc
       -0.04708487 -0.04110532 0.0022091074 -0.0146133285
0002d0 09 9c 92 bc e6 40 0e 3c 00 da d6 ba 5e 0c eb bc
       -0.017896669 0.008682465 -0.0016391873 -0.02869242
0002e0 ca 38 83 3c 23 e8 98 bc 46 4d 33 bc fc 85 eb bb
       0.01601829 -0.018665379 -0.010943716 -0.007187603
0002f0 b8 d3 74 bd d3 3b 01 bd af e5 3d bd f1 0d d5 3b
       -0.059772223 -0.031551193 -0.04636162 0.006501906
000300 b5 53 52 3c a4 51 ae 3c c0 cf 95 bc a3 5e 1b 3d
       0.01283734 0.021279164 -0.01828754 0.03793205
000310 e5 24 b0 bc 36 00 cd bc 80 40 9d 3c 02 57 04 bb
       -0.021501968 -0.025024515 0.019195795 -0.0020193462
000320 d7 56 eb bc 6e 8b c3 bc 2b d4 de bc fc 15 51 bd
       -0.028727932 -0.023870196 -0.027200779 -0.051046357
000330 28 5e 70 bc 5a 2a d2 3c fe d0 de 3c 55 46 56 bc
       -0.014670886 0.02565496 0.027199265 -0.013078292
000340 7f 26 2b bc 00 34 07 3d 7e d2 ac bc 0c 9b 9b bb
       -0.01044619 0.033008575 -0.021096464 -0.0047487076
000350 76 d9 db 3c 25 38 92 3c 00 f5 0d bd 41 73 93 3b
       0.026837092 0.017849037 -0.03465748 0.0044998233
000360 48 e4 47 3b 1b 31 3a 3d b3 aa ed bc a8 70 1f bc
       0.0030501056 0.045456987 -0.02901206 -0.009731449
000370 c0 bc 87 bc 0a 5a 8d bb 83 94 1e bd ce 7a e1 3c
       -0.016569495 -0.004313712 -0.03871585 0.027524378
000380 35 d1 69 3c 0c 53 ac bb 6c 5f ac bc a4 12 a0 3c
       0.01427107 -0.0052589234 -0.021041594 0.019540139
000390 ed 8b d3 3a 26 a4 2f bd e5 48 27 bc b6 36 d2 bc
       0.0016139724 -0.042881154 -0.0102102505 -0.025660854
0003a0 8a c0 da bc 49 7d f3 bc 6d 6f ee 3c d2 65 af bc
       -0.026703138 -0.029722827 0.029105866 -0.021410856
0003b0 33 2a 12 bc ce 4a d6 bb 53 c0 22 bc 4d 6d be 3c
       -0.008921194 -0.006539679 -0.009933549 0.023245478
0003c0 e7 b6 80 bc 21 0f 82 ba ad 91 ec bb 82 06 36 3b
       -0.015712215 -0.0009922722 -0.0072195143 0.0027774875
0003d0 f7 35 08 bd a7 d2 f1 ba 16 fc ac 3c 7a 89 3d bd
       -0.03325459 -0.001844962 0.021116298 -0.046273686
0003e0 93 ea 2a 3b 2f 21 94 bc 21 7d a8 bc bd 27 26 bd
       0.0026079759 -0.01808223 -0.020567479 -0.04056524
0003f0 b7 87 08 3d 22 77 85 bc 8e 44 d8 bc 77 56 2a bc
       0.033332553 -0.016292159 -0.026399877 -0.010396591

linear2.weight f4 [6, 256]
000000 98 06 1a be b6 75 8b bc 00 5e 2d bc de ae 4d 3d
       -0.15041578 -0.017023902 -0.010581493 0.050215594
000010 09 c5 3f bd 61 04 d1 3c d8 99 da bc 07 6a ea ba
       -0.046818767 0.025514783 -0.026684687 -0.0017884382
000020 74 4d 08 bd 86 1b cd 3c 46 9d 06 3d 94 fd f9 3c
       -0.03327699 0.025037538 0.03286483 0.030516423
000030 c2 e1 72 3d 87 88 df 3c 2c ab 65 bd 97 c7 ef bc
       0.05929733 0.027286781 -0.056071445 -0.029269977
000040 e0 ac dc 3b 80 62 55 3d b3 11 bd bb 5b ff e4 3c
       0.0067344755 0.05209589 -0.005769932 0.027953794
000050 dd db 50 3c 54 bc 4e ba fb ed 06 3d cc de 0d 3e
       0.012747732 -0.00078863394 0.0329418 0.13854522
000060 e6 2d 9e 3c 33 2b 0c 3c 0a 9e 30 3c 99 8e 92 3d
       0.019308995 0.008555221 0.010779867 0.071561046
000070 66 c1 76 3d 44 45 a5 3c c8 ec 60 3d 32 5a 2b be
       0.060243033 0.02017463 0.054913312 -0.16733626
000080 cf fd c9 bd f0 0e 9a bc 99 fe 86 bd ba 83 c1 3c
       -0.09862863 -0.01880595 -0.065915294 0.023622382
000090 ad 17 b1 bc 5f ec 98 bc 9d 0f ec 3c 44 63 0d 3e
       -0.021617735 -0.018667398 0.028816039 0.13807398
0000a0 56 fe ef 3c e0 ab 8d bb bb 28 39 bd 5a 81 c0 bc
       0.029296082 -0.0043234676 -0.04520486 -0.02349918
0000b0 84 de 3b bd 9f ca 31 3c 79 9e cb bc b9 90 97 3a
       -0.045866504 0.010851531 -0.02485584 0.0011563516
0000c0 5e 70 bb bc 40 ad 10 3e d4 6e cd 3c 96 05 fd 3b
       -0.02288073 0.1412859 0.025077261 0.007721613
0000d0 e0 a3 4b bc d2 16 e8 3b a8 b3 4f be 1b 2f 8e 3d
       -0.012429208 0.0070827985 -0.20283377 0.069425784
0000e0 cc 29 46 3c 59 fd 51 bc 94 31 50 bd 23 69 8e be
       0.012094926 -0.01281675 -0.05082853 -0.27814588
0000f0 4f eb 96 3d 74 42 66 bd 24 3a 23 bc 56 e1 00 bd
       0.073691 -0.05621572 -0.009962592 -0.031464897
000100 35 35 1a bd a7 0d 3a ba fb 3a e3 bc 4a ca 17 3e
       -0.0376484 -0.0007097371 -0.027738085 0.14823261
000110 72 c6 1a bd 85 14 20 bd a3 ad 63 3c 2e fe 19 be
       -0.03778691 -0.03908207 0.013896379 -0.15038368
000120 0b e7 33 3c c0 d4 45 bd f7 d4 09 be 95 82 74 bb
       0.010980378 -0.048298597 -0.13460146 -0.0037309278
000130 35 0f 5d bd 68 cd 39 3d af b6 ff 3d 62 e3 bf 3c
       -0.05396958 0.045361906 0.12486016 0.023423854
000140 8c 82 c5 3c 37 6d 20 3e cd 1d 50 bd b9 ce ce 3d
       0.024110101 0.15666662 -0.05080967 0.10098023
000150 fb ba 66 3c 3f ad 1f be 5e 70 8a be 15 f4 0e 3d
       0.014082666 -0.15593432 -0.27038854 0.034900744
000160 03 ce 3c bd 43 7f 45 bd 24 6e 56 bd 87 86 3d bd
       -0.046094906 -0.04821707 -0.052351132 -0.046270873
000170 03 6c 47 bd ca df 2b 3d 2f b4 0f be 06 2e 16 3d
       -0.048686992 0.04196147 -0.14033578 0.036664985
000180 4e 37 fd 3d 8f ef c1 3d 34 7c 88 3c a2 3d 38 3d
       0.12364064 0.0946952 0.016660787 0.044980653
000190 8c 54 2d bd 46 ab 19 bb 59 37 a7 3d ff 4a ad 3d
       -0.04231696 -0.0023448034 0.081648536 0.0846157
0001a0 7b 8b 94 3c c0 3c 49 bd cd 1e 30 bd 05 2f 12 3d
       0.018132916 -0.0491302 -0.042998124 0.035689373
0001b0 36 6a 3c 3d f6 4e 19 bb a2 8e f4 bb 00 13 ce bc
       0.04599973 -0.0023393012 -0.007463292 -0.025155544
0001c0 98 50 c9 bd a5 07 1e 3e 3a d6 aa be 26 22 63 bb
       -0.09829825 0.15432604 -0.33366567 -0.0034657805
0001d0 9b ce 3c bc e9 eb da 3d d8 ad e7 3c 92 63 0d 3c
       -0.011523868 0.106895275 0.028281137 0.008629696
0001e0 97 55 35 bc a4 26 47 3d ef d5 84 3d 0c 50 2d 3d
       -0.0110677695 0.048620835 0.06486117 0.042312667
0001f0 08 b1 5b be 55 8f 2c 3d 7d fe db bc 14 7c 02 be
       -0.21454251 0.04212888 -0.026854748 -0.12742645
000200 3e cd f9 bc ba 34 84 3d 59 a5 12 bd d5 79 50 3e
       -0.030493375 0.06455369 -0.03580222 0.20358975
000210 16 d3 04 bd 7b f4 11 be 48 5e 03 bd 6a 30 9b bc
       -0.03242787 -0.14253418 -0.032072335 -0.018943984
000220 d5 a9 97 3d 11 1b 0d bd f0 80 35 3c 54 30 e1 3d
       0.0740544 -0.03444964 0.011078104 0.10995546
000230 e9 52 9e 3c 8f ad 89 bd 3e ff b4 bc 81 7f d6 bd
       0.019326644 -0.06722557 -0.022094365 -0.10473538
000240 c5 99 a3 3b b6 60 a5 bc 3e 9d 21 3b 13 2d 1a bd
       0.004992696 -0.020187717 0.0024660374 -0.037640642
000250 7a e1 26 bd 66 02 06 bd 1f 32 66 3c 22 e9 9b 3c
       -0.040742375 -0.03271713 0.014050036 0.019032065
000260 d4 46 ef 3d 78 7a 27 bd ae a9 01 3c 29 79 77 3d
       0.11683431 -0.04088828 0.00791399 0.06041828
000270 95 c4 91 be e1 e4 2e 3d a3 4b 23 bd 46 e5 b7 bc
       -0.28470293 0.042698745 -0.039867055 -0.022448193
000280 6d b5 53 be 21 2a 07 bd bd e9 6f 3c cf 30 44 3d
       -0.20674677 -0.03299916 0.01464313 0.04789811
000290 11 91 b5 bc 77 32 0e 3d bd 4b 54 bd 29 d8 b6 38
       -0.0221639 0.034716096 -0.051830042 8.718699e-05
0002a0 6e 95 b5 3d 74 cf 1b 3d 70 dc 5f 3d c0 31 90 3c
       0.08866392 0.03803964 0.054653585 0.017601848
0002b0 97 c9 d8 3c 66 c9 aa bc 88 b8 b7 3c 62 dd 9a 3c
       0.026463313 -0.020847987 0.022426859 0.018904392
0002c0 d5 c0 a0 3b 85 91 0c 3d f1 29 64 3d dc 8a 62 bc
       0.0049058 0.034318466 0.05570406 -0.013827052
0002d0 44 a7 80 be ea ca a8 bc fe ef 3d 3d c8 6f d5 bc
       -0.25127614 -0.02060457 0.046371453 -0.026054278
0002e0 f0 4f fe bb 8f 89 a7 bc aa 8d 68 bc 83 fa 4f bd
       -0.007760994 -0.020451335 -0.014193932 -0.050776016
0002f0 2d 84 fc bd d2 cd eb bc aa 6b 43 bd e2 cf 2e 3b
       -0.12329898 -0.028784666 -0.0477101 0.00266742
000300 b3 6b 00 3c d7 ad bb 3d 53 06 82 bb 80 55 92 bc
       0.0078381775 0.09164017 -0.003968039 -0.017863035
000310 58 59 35 3d 9c bd ce bd 8c d9 d2 3c 5e 4f c6 bc
       0.044274658 -0.10094759 0.0257385 -0.024207767
000320 4e 71 6a 3d 59 9e 65 bd b9 bf d7 bc 68 63 20 bb
       0.057236962 -0.056059215 -0.026336538 -0.0024473313
000330 21 d0 0b bd 22 6e 21 bd b7 e9 54 bd 4c 7a 1f b9
       -0.034134034 -0.03941167 -0.0519807 -0.00015208981
000340 50 1a 0d 3e 90 e5 ed 3d 69 16 cf 3b 24 ab 37 3c
       0.13779569 0.11616051 0.00631981 0.011210237
000350 73 1c 49 3d e5 82 6a 3d 6d 71 3d bd d5 78 ac 3c
       0.049099397 0.057253737 -0.04625075 0.021053711
000360 f0 31 5e bd 3f bc 0d 3e cd 50 8f bc 6c b3 32 bb
       -0.054246843 0.13841341 -0.017494584 -0.0027267588
000370 5d 37 ca bd 93 b5 51 3d e0 31 4c 3d df e0 dc 3b
       -0.09873841 0.051198553 0.049852252 0.006740674
000380 f4 15 3a 3d 04 35 45 bd 30 bd 2c 3c bc 0f ff 3c
       0.045431092 -0.048146263 0.010543153 0.031135432
000390 8a 34 7f be f6 98 b9 3d aa 43 17 3d 1e 30 1c bd
       -0.24922386 0.09062378 0.036929764 -0.038131826
0003a0 b5 0e b8 bc 0f 5f be 3c 91 3a 34 bc e3 7c 28 3d
       -0.02246795 0.023238687 -0.011000291 0.041134726
0003b0 72 31 1f 3d f2 9e 17 3d 5d 3d 42 bd 42 2a ec bc
       0.038865514 0.037016816 -0.0474218 -0.028828744
0003c0 79 82 68 be 7c 92 28 3d f5 ca 14 bd 0d cb 3a 3d
       -0.22706021 0.041155323 -0.036326367 0.0456038
0003d0 a0 e2 a8 bc b1 26 6a bd 98 2c 68 3d a8 3e 39 be
       -0.020615876 -0.057165805 0.056683153 -0.18090308
0003e0 bf ed 17 3b 25 53 4e 3d ab 60 9b be 6c 76 ef ba
       0.002318248 0.05037226 -0.3034719 -0.0018269545
0003f0 e1 92 cc 3d 9a 5c 30 3b 7b bf 11 be a5 3c 57 be
       0.099889524 0.0026910664 -0.142332 -0.21019228

linear2.bias f4 [6]
000000 f1 a1 e0 39 63 1f c6 3c 89 0b 40 bd e1 fc 0b 3c
       0.00042845265 0.024184888 -0.046886 0.008544178
000010 9f e3 de 3c d5 96 65 bc
       0.027208148 -0.014013012
